model_1.pth (torch, 250296 bytes, 10 tensors)

conv1.0.weight f4 [6, 1, 5, 5]
00000000: 6541 eabd d9f3 f9bd 5fc4 b7be fe68 8ebe
00000010: efa7 b3be e8c2 b5bd a021 00be 9801 41bd
00000020: 04b9 fdbd b608 8abe bd33 b93e 7dc6 b63e
00000030: 52f9 383e c50a d13e 7e9b 913d d835 1f3d
00000040: cec3 de3e 71f3 d83e a62f 513e 2374 bc3e
00000050: 987f 8ebe 151e a33d 24b0 103e 7c70 d53d
00000060: 8336 273e 5050 593d df44 5c3e 8187 9abe
00000070: 3513 bebe 39ba e7bd 350c 5d3e 2419 96be
00000080: 0d1c 41bf 953e b4be f056 35be 2587 083c
00000090: cae4 cabe 886f 15bf 0418 79be ff2c 79bd
000000a0: 32fb 2c3e 5a96 40bc 7393 cf3b 0728 4d3e
000000b0: 3097 8b3e 7e8f 943e 3a65 313e a77f 893e
000000c0: 292f 113f 1aca 043f 43fc 1cbc 053b 30be
000000d0: 7556 4abe d4fc 8b3c 6b3d 29be 1102 2e3d
000000e0: 6bd8 a5bd fee3 0b3e 086a 663e b3fa 9a3e
000000f0: 8d5a 8bbe 6e84 1ebe 9aa9 d13d e776 093f
00000100: 3b2d 2c3e 61c8 93be 5226 1cbe ff3c 8c3e
00000110: af22 113f a0d9 8d3e af27 83be 6bf1 02be
00000120: 8771 533d d495 9d3d 15ff 993d d81b 2bbd
00000130: 7533 a6bd ed3b 41be 8005 0fbe 7f8c 19be
00000140: 4116 af3e 01a3 083f af15 f83e 2f66 223e
00000150: 749f 903e a55a 8a3e 6b98 0e3f 6a5d ef3e
00000160: 43ef b63e d244 463e 6218 41be 35de 23bd
00000170: b2bd 0f3e 8db9 f83d 36a3 a5bd a15e 34be
00000180: 5672 e5be e8c2 bdbe d36f 9fbe 9ffc 05be
00000190: 2c9c b93d cf53 bb3e 0ab2 ae3a 15bc 513e
000001a0: 8747 7d3e fc19 21be a183 0fbf fd65 aebe
000001b0: 4b48 edbd 5795 7d3d a6fa 16bf f97a 1dbf
000001c0: 47fa fdbe f432 09be 2406 a93e e008 57be
000001d0: de84 ecbe 4e24 a9be 9865 a83e 88a4 733e
000001e0: a04f 8d3e 0cb2 b33d 45c4 813e bde4 773e
000001f0: e589 e73e b5d4 d2be 32d4 88bd f407 b63d
00000200: 6a43 bcbc a8f6 b43d 737d 32be 95ec ce3d
00000210: b907 e03e 0745 0a3f 5ec3 d63e 0847 733d
00000220: 6704 c43e 9110 193f 1bce 8a3e 7d8f e23c
00000230: e605 a23e 03d2 ec3e 428d 133f 00b4 c23e
00000240: dfbe 40be 4adb 723e cbf7 123f 1b7d 923e
00000250: 0967 efbd 6ae3 1ebb
-0.11438254 -0.122047134 -0.35892007 -0.27814478 -0.3508906 -0.08875066 -0.12512827 -0.04712066
-0.123888046 -0.2695977 0.36172286 0.3569831 0.18063858 0.4082853 0.07109736 0.03886971
0.43508762 0.4237323 0.20428333 0.36807355 -0.2783172 0.07964722 0.14129692 0.10421845
0.16329388 0.053055108 0.21510647 -0.30181506 -0.3712403 -0.11314816 0.21586688 -0.29316056
-0.7543343 -0.35203996 -0.17708945 0.008333002 -0.39627677 -0.5837331 -0.24325567 -0.060833927
0.16892698 -0.011754597 0.006334716 0.200348 0.27263784 0.29015726 0.17323771 0.26855204
0.56712586 0.5187088 -0.009581628 -0.17210014 -0.19759543 0.017088331 -0.16527335 0.04248244
-0.08097919 0.13661191 0.22501385 0.30269393 -0.27217522 -0.15480205 0.10237427 0.53697056
0.16814129 -0.28863814 -0.15248993 0.27390286 0.5669355 0.27705097 -0.25616214 -0.12787406
0.05162194 0.07694593 0.07519356 -0.0417746 -0.081152834 -0.18870516 -0.13966942 -0.14995001
0.34196666 0.53373724 0.48454043 0.15859292 0.28246653 0.2702228 0.5570132 0.46750957
0.35729417 0.1936219 -0.18856958 -0.040006835 0.14037207 0.12144766 -0.08087771 -0.17614223
-0.44813794 -0.37062764 -0.31140003 -0.13084649 0.090629905 0.36587378 0.0013328206 0.20481904
0.24734317 -0.15732569 -0.56060225 -0.34062186 -0.115860544 0.06191 -0.5897621 -0.61515766
-0.4960501 -0.13398343 0.33012497 -0.2099948 -0.4619512 -0.3303551 0.3289001 0.23793232
0.27599812 0.08774194 0.25345054 0.2420835 0.45222393 -0.41177908 -0.06681098 0.08888236
-0.022981364 0.088361084 -0.17430668 0.10103718 0.43755892 0.5401158 0.41945928 0.059393913
0.3828461 0.59790903 0.2711037 0.027656311 0.31645125 0.46253976 0.5763742 0.38027954
-0.18822812 0.23716465 0.5740935 0.28611073 -0.11689574 -0.0024244436

conv1.0.bias f4 [6]
00000000: abeb c4bd 425a 9cbd a800 3fbd aa49 1ebe
00000010: b986 8f3d 87b3 33be
-0.096152626 -0.07634403 -0.046631485 -0.15457788 0.07008118 -0.17548953

conv2.0.weight f4 [16, 6, 5, 5]
00000000: cec7 003e 1e83 d83d 815e d13d 89ba b5bc
00000010: 1106 41bc d981 023e 05ae 193d 7516 29be
00000020: cd10 49be 64e6 88be 1659 773d 5f96 b8bd
00000030: 3815 4ebe 62ed 6abd baa8 2fbe 309d b93d
00000040: 83f9 0c3d 73fc a53c 75b3 033e c9c9 b83d
00000050: f101 da3d ed5d ef3d 1c15 153e f9bb 423e
00000060: 7eff 393c 751b cc3d d8dd 063e 40fd 06be
00000070: a621 8abd c0ee 45be b5e9 ad3d 5f76 f7bd
00000080: 6a3c 93bd 3faf b63d ea86 fc3c b606 1dbd
00000090: 8b6a 90bd 55f2 923d 4a80 bc3e 7dec b43e
000000a0: 765a d13c 89cb 0c3e 704a 873e 4029 983e
000000b0: 930c 4b3e 8fa1 4b3d 6507 e53d 608f c53d
000000c0: f1ec 1fbe 5792 093d 6ca5 37be a54e 653b
000000d0: 426e e1bd fa98 9f3c 4b13 dc3c 49c0 81bc
000000e0: 6e18 6dbd fdec 92be e16b 68be f2ef 8abd
000000f0: c84e adbc 1bd1 d6bd 7db1 8dbe be1b 40be
00000100: cb25 0cbe 34b4 95bd 508b f2ba 022f a73b
00000110: d9e6 c03d 2841 aebc 0d2d d53d 3e27 6c3d
00000120: b702 033e d8fd 2c3e 335b af3c 04d0 053d
00000130: 93b1 0f3d f672 143e 8925 1d3e 36e1 7b3e
00000140: ab49 6c3e a17c 393e 721d 1d3e 9a5f 5b3d
00000150: efd3 9cbd b9a2 853d e4ae c63c 7c95 7cbc
00000160: 282c 96be 42b4 ddbe ac09 c43d bd40 d23d
00000170: 302d 36be d0d9 09be ebdd cdbd 23c7 15bd
00000180: 9c9a 173e 1e61 e43d d6b6 2b3e c424 9b3d
00000190: 6906 ddbc 3e11 d0bc 6d60 44be bc0f 6dbe
000001a0: 619a e4bd 3cca 903b 4b84 11be 701e 3cbe
000001b0: aa27 3bbd d33d 3b3c be0b 9ebb 1b54 38be
000001c0: 9fc6 d73c 3e3a 333e 8e20 c73e 27ec 2c3e
000001d0: 3509 86bc 49a9 243e f317 273e aeb2 bfbd
000001e0: 50b4 ed3d 4c2e 073d f0d6 4b3d 2059 e3bd
000001f0: 2149 0fbe 38a8 dcbc ea87 bc3b cdc3 713d
00000200: 5e57 803d 9838 f6bc 9ede d3bd f544 0b3d
00000210: f4bd d83c 04ea 343d 70d1 edbd c6c0 29be
00000220: e1ca 83bd e68d d7bd ae98 8bbd 6bb1 ef3b
00000230: ebcc 0cbd 677b 053d 2da0 313c 61ab d13c
00000240: 1b85 003e 8018 083c 2654 393e abd5 533e
00000250: e4a9 873e 8e2f 513e 753b d4bd ce3c c7bd
00000260: ba2e 57be 0e50 91bd 7cc4 2f3d 27a6 b63a
00000270: d61f 9dbd f52d 6abe 0f61 81be 7706 2fbe
00000280: 9826 e13d a1fd 533e aef3 363e 3a54 d6bd
00000290: 9a13 63be 74b9 0c3c 49ea ed3c 5ccb 283e
000002a0: 992f e43d 1cea b9bd 2296 30bd 0853 573d
000002b0: 4474 343d 83e1 2c3e 561f bfbc cfba 7b3e
000002c0: 56af be3d bdb9 8ebc 222c 183d fd21 bb3c
000002d0: 04d0 453e bcc9 7c3e 3f30 513e 19ee 163d
000002e0: 7aab bf3d 58ad fd3d 3252 fa3d 60b4 183e
000002f0: 4a58 393e 59f5 233d 0d01 33be 83bd 0cbe
00000300: 900e d0bd 491f d73d e0cb db3c 329f 3bbe
00000310: 434b 0bbe 542a 9fbd bf70 bebd 7a13 213e
00000320: 455c 56be a5d9 0dbe 4787 43bd 4977 4e3b
00000330: 9c45 593c e972 a1bd 735f 22be df24 3bbe
00000340: ac50 94bd f019 47bc 695a d93d 9066 0e3e
00000350: bfb1 0fbc 444e 2abe 8866 eebd 2d70 083e
00000360: 90fb 7e3d 21bd 323e e963 cc3b ecf8 a2bd
00000370: 3779 e7bd e95c 3e3d 11e8 193e d9b7 01bd
00000380: b86e 1a3c 9b6e 69be 6175 9fbd 218c 09be
00000390: 4097 d0bd 0f63 54bd 6178 1bbe 159c 82be
000003a0: 7280 95be 2cd9 35be 3a71 eebc 13a0 3d3d
000003b0: 150f 88bd a082 4bbd 9182 41be 9c4d 5ebe
000003c0: 032b 2c3e c14f 823e 1825 853e af16 3c3c
000003d0: 15a2 9fbd 9c11 103e e247 ba3d cbfe 053e
000003e0: 4609 203e c9ea abbd fead ac3d a721 bf3d
000003f0: a056 183e 4559 ab3d e11e 543d 2969 8e3d
0.1257622 0.105718836 0.10223103 -0.022183673 -0.0117812315 0.12744845 0.037519474 -0.16512473
-0.19635315 -0.26738274 0.060387693 -0.09013056 -0.20125282 -0.057355292 -0.17154208 0.09063184
0.03441764 0.020261979 0.12861426 0.090228625 0.106449015 0.11687837 0.14558834 0.19017018
0.011352418 0.099661745 0.13170564 -0.13182545 -0.06744699 -0.19329357 0.08491842 -0.12083124
-0.071892574 0.08920144 0.03082605 -0.03833648 -0.070515715 0.071751274 0.36816627 0.35336676
0.02555583 0.13749518 0.2642398 0.2971897 0.19829015 0.04971462 0.11183051 0.09646487
-0.1561773 0.033586826 -0.17934197 0.0034989503 -0.11007358 0.019482125 0.026864668 -0.015838759
-0.057884626 -0.28696433 -0.22697403 -0.06784047 -0.02115573 -0.104891025 -0.27674475 -0.18760583
-0.13686292 -0.07309762 -0.0018504653 0.0051020393 0.09419031 -0.021271303 0.104089834 0.05765461
0.12794004 0.16893709 0.021405792 0.032669082 0.035081457 0.14496979 0.1534635 0.2459763
0.23074977 0.18113948 0.15343264 0.05355797 -0.076576106 0.065251775 0.024253316 -0.015416499
-0.29330564 -0.43301588 0.09572157 0.10266254 -0.17790675 -0.13461995 -0.10052093 -0.036566865
0.14805073 0.11151336 0.16768965 0.07575372 -0.026980596 -0.025398847 -0.19177409 -0.23150533
-0.11162258 0.0044186395 -0.14210622 -0.18370986 -0.045692123 0.011428314 -0.004823177 -0.18000834
0.026339827 0.17502686 0.38892025 0.1688696 -0.016361812 0.16080202 0.1631773 -0.09360252
0.116066575 0.033003137 0.049765527 -0.111009836 -0.1399274 -0.026935682 0.005753507 0.05902462
0.06266664 -0.030056283 -0.10345195 0.03400131 0.026457764 0.044168487 -0.11612213 -0.16577443
-0.064351805 -0.10525112 -0.06816231 0.007314851 -0.034375113 0.03258839 0.010841412 0.025594415
0.12550776 0.0083066225 0.18098506 0.20686977 0.26496804 0.20428297 -0.10362903 -0.097283944
-0.21013919 -0.07095347 0.04291199 0.0013935015 -0.07672088 -0.22869094 -0.25269362 -0.1709231
0.10993689 0.2070222 0.17866394 -0.10465284 -0.22175446 0.008589137 0.02904238 0.16483825
0.11141891 -0.09077856 -0.043111928 0.05256942 0.044056192 0.16882901 -0.023330372 0.2458298
0.093107864 -0.017422551 0.037151463 0.022843355 0.19317633 0.2468633 0.2042856 0.03684816
0.093588784 0.12386578 0.12222709 0.14912558 0.18100086 0.040028904 -0.1748087 -0.13744168
-0.101590276 0.10504014 0.026830614 -0.18322447 -0.13602929 -0.07771745 -0.09298848 0.15730086
-0.20933636 -0.13852556 -0.047736432 0.0031504205 0.013261225 -0.078832455 -0.15856723 -0.18275784
-0.072419494 -0.01215218 0.106129475 0.13906312 -0.008770405 -0.16631418 -0.1164065 0.13324042
0.062251627 0.1745496 0.006237496 -0.07957634 -0.11302417 0.046475325 0.15029933 -0.03166947
0.0094258115 -0.22796099 -0.0778606 -0.13432361 -0.10185099 -0.051852282 -0.1518264 -0.25509706
-0.29199558 -0.17758626 -0.029106725 0.046295237 -0.06643502 -0.04968512 -0.18897463 -0.21709293
0.16813283 0.25451472 0.26004863 0.011480018 -0.077945866 0.14069217 0.09095742 0.13085477
0.15628538 -0.08394391 0.08431624 0.093325906 0.14876795 0.08366636 0.05178726 0.069536515

conv2.0.bias f4 [16]
00000000: e5f4 31bc 5fa7 c9bd 7844 f3bd 97df de3c
00000010: e5f0 f2bd 819f 60bd 5b19 fa3d fa38 1c3e
00000020: 68de 253e d940 91bd 69b0 9d3d d3fb 91bb
00000030: baf3 6ebd e468 b53d 9cb7 d13d e3d0 4cbe
-0.01086161 -0.09846377 -0.11878294 0.027206225 -0.11862353 -0.054839615 0.122118674 0.1525611
0.16198123 -0.07092447 0.07699663 -0.0044550686 -0.058337905 0.08857897 0.10240099 -0.20001559

conv3.0.weight f4 [120, 16, 5, 5]
00000000: 236a 8ebd 464d b7bd bdac f5bd fd51 6bbd
00000010: c9f9 e1bd 06b2 9bbd 0907 bbbd 8fcb 3abe
00000020: 8a6c ba3b 2423 453b 0d11 ad3a 3570 b2bd
00000030: de1a 0e3d 8df5 523e 8e2b 2c3e 3e76 113c
00000040: f1c4 e7bd 9b0b 3e3e 7c66 23bb 8c34 70bd
00000050: 5981 8d3d 854a 2d3c 6a87 cf3d 9b62 31bd
00000060: abca 28bd c4b7 debc f43c 953c 8938 b73d
00000070: 58ca 2f3c c83e 0bbe fd12 1cbd 320d 2f3d
00000080: 6785 103e cf19 3c3e cb30 67bd ad77 84bd
00000090: 43c4 3e3d 4493 ea3b d8f5 26be d868 d5bd
000000a0: aa2c d63c d1e9 103d 5368 e43d 501c e3bd
000000b0: 2e7d ccbb 6fd2 5bbd a2b4 0dbd ae99 f6bc
000000c0: 4945 b73d 78d2 a93c ba0a 17bd 797b d73d
000000d0: 13a3 1d3e 248a 1dbc c701 10be b8c6 893d
000000e0: 18ab 503d a79d b53d 1e20 6dbd b0f2 3e3d
000000f0: 8787 d53c e9ce a33e 59ca dcbc ed6b babe
00000100: 155b 09bd 014c e53c e5b3 d13d 48f2 c0bc
00000110: adda 53bd 6ce5 12bb ce2d 03be 7784 20be
00000120: 3d2c 6abd 518a 26bd d561 3f3d 639c 59bd
00000130: 951b 5ebd fad1 cbbb 9fa7 d6bd 4ef6 1fbc
00000140: 6190 c9bd 16cd 5bbd 090d 28bc 07ce 92bd
00000150: 49db b8bd e19e 01bd 2f4b 86bc bdc1 51bd
00000160: 6edb e6bc 95b9 04be 665a 6f3d 9bb3 963d
00000170: f9ba 6bbd 4c52 8b3b c754 013a b56a 5e3e
00000180: 22d5 623e cb32 2d3e e468 56bb 0d60 27bd
00000190: 89e3 f5bd 10e3 ccbd cc81 923c 8fc7 17be
000001a0: f30b 18be a706 683d a67b 613d 26d2 9cbd
000001b0: d82d 49be 2c00 863c 9d46 0ebd d311 583c
000001c0: 0774 cdbc 2688 74be c50f d43d 7405 4d3e
000001d0: 0c19 303d 006a 26be 946f 3a3d 0d91 493e
000001e0: a1e6 753d f186 51bc 287a 443e d565 633e
000001f0: 4c8f 51bb 2ff5 78bd f544 fc3c bf75 6b3d
00000200: 6570 c6bd 0aaa fdbd bd3b 25bd 9af0 973d
00000210: f5eb 443e 876c e2bd 1594 45be ff8f 55bd
00000220: 40c1 203d 9a90 c73d fcbd 6abe 822a 7fbd
00000230: ea22 f63c d691 443e 5d74 a3bb b502 a2bd
00000240: 074a 053e 4c8e 393e df9c 8f3e 2672 0c3e
00000250: d105 7bbd f273 0a3e 0d19 963d cb0a 093e
00000260: b60e 8d3d c0cd 36bd aa34 b3bd 99b9 133d
00000270: a2a0 6d3e daea 563c 080f 0d3d 2b71 ffbd
00000280: 94ec 42bc 6826 e53d 31fc a7bd fc31 2fbd
00000290: d67c 033d 2dbf a2bc 5eb2 6cbd 0ed9 3bbb
000002a0: 447a 903d b316 133e bf7d a2bd 1e11 ca3d
000002b0: 62a6 823d 7b61 c3bd 6728 28bb c883 e9bd
000002c0: b264 28be ef2e 223d 3da2 d63c cc1d 80bd
000002d0: 1442 07be dfd0 babd 2af3 cd3d 9b83 d53d
000002e0: e390 b03d f159 12bd ee8b f8bc 3349 7f3e
000002f0: 1053 1abc 3e20 d13d 758c fa3b d5a7 123e
00000300: d0f0 7b3e 7390 59bd ae03 12bc da2c 8b3c
00000310: 3b74 ec3d 171d 0a3e 5e80 c0bd e196 65be
00000320: 9230 01bc 3db7 bdbc ce80 933b a04f 13bd
00000330: e350 b0bd a6d4 5e3b 1c82 e03c d535 c7bc
00000340: c3c7 593d 8ce0 2dbb b43d 4f3d 1282 e1bd
00000350: c0dc bd3d 1d8a 2fbe e366 b7bd bef7 183e
00000360: ae1f 2f3d e9b7 e0bb 07d2 ab3d 3a28 b03d
00000370: 4bdd 1ebd ba90 e63d 7e43 403e 860b 963c
00000380: 2b32 79bd dca8 da3c 3a87 3dbd 820e d9bc
00000390: a2d2 7c3d 6a73 8b3a ed21 bebd 9330 9a3d
000003a0: ef3c 3b3e 012c fd3b 5139 10be 8093 50bd
000003b0: f3a8 2f3d f237 9ebd a68d 513d 202f 3cbd
000003c0: 173c b5bc dc98 80bd c739 0f3e b052 92bc
000003d0: 3413 bb3c b801 893b bf5d 0abb 137e c93c
000003e0: 7ce0 b9bc 655f 403d 3bb9 c53d c144 c13c
000003f0: d3e8 d43d 6e69 5b3d 5ec3 f03d 1566 46bd
-0.06953838 -0.089502856 -0.11995838 -0.057451237 -0.11033971 -0.07602315 -0.09132201 -0.18241714
0.0056892084 0.003008076 0.0013203934 -0.08712808 0.03469359 0.20601483 0.1681349 0.008878289
-0.113168605 0.18559115 -0.0024932912 -0.058643863 0.06909437 0.010576849 0.1013325 -0.043306928
-0.041208904 -0.027187236 0.018217541 0.0894633 0.010729395 -0.13598168 -0.038104046 0.042737193
0.14113389 0.1836922 -0.056443017 -0.06468139 0.04657389 0.0071586687 -0.1630472 -0.10420388
0.026144344 0.035379235 0.11152711 -0.110893846 -0.0062405085 -0.053667482 -0.034596093 -0.030102577
0.08948762 0.020730242 -0.036875464 0.105215974 0.15394239 -0.009615455 -0.14063178 0.06727356
0.050944418 0.088679604 -0.057891957 0.046618164 0.026065601 0.31993797 -0.026951956 -0.36410466
-0.03353413 0.027990343 0.1023939 -0.023553029 -0.051722217 -0.0022414578 -0.12810442 -0.15675531
-0.057171095 -0.040659253 0.04672416 -0.053127658 -0.054225523 -0.0062200995 -0.1048119 -0.009763313
-0.09841991 -0.053662382 -0.010257014 -0.07168203 -0.090262 -0.03164566 -0.016393272 -0.051210154
-0.028180804 -0.12961419 0.05843582 0.07358476 -0.057551358 0.004251754 0.0004933592 0.21720393
0.22151616 0.16913907 -0.0032716328 -0.040863086 -0.120062895 -0.10004246 0.017884158 -0.1482222
-0.14848308 0.05664697 0.05504956 -0.0765727 -0.19646394 0.016357504 -0.03473531 0.013187843
-0.02507974 -0.23880062 0.1035457 0.20021611 0.042992637 -0.16251373 0.045516565 0.19684239
0.060034398 -0.01278852 0.19187224 0.22206815 -0.003197628 -0.0607807 0.0307946 0.05748534
-0.09689406 -0.12385948 -0.040340174 0.07418938 0.19230635 -0.11055856 -0.1929477 -0.05213928
0.039246798 0.097443774 -0.22924036 -0.062296398 0.030045945 0.19196257 -0.004988237 -0.079106726
0.1301652 0.18120688 0.2804937 0.13715419 -0.061284844 0.13520792 0.07328997 0.13383023
0.068875715 -0.044629812 -0.08750279 0.03606567 0.23205808 0.013117516 0.034438163 -0.12472757
-0.011897225 0.11188966 -0.082023986 -0.04277228 0.032101475 -0.01986655 -0.05778729 -0.002866331
0.0705457 0.14364128 -0.079341404 0.09866546 0.06379391 -0.09540077 -0.0025658847 -0.114020884
-0.16444662 0.03959554 0.026200408 -0.06255683 -0.132088 -0.0912187 0.100561455 0.104254924
0.08621385 -0.035730306 -0.030340161 0.24930267 -0.009419218 0.10211228 0.0076461383 0.14321835
0.24603581 -0.053116273 -0.00891201 0.01698916 0.11545607 0.1348766 -0.09399484 -0.22420837
-0.007885115 -0.023158664 0.0045014387 -0.03596461 -0.08609178 0.003400126 0.027405791 -0.024317661
0.053169023 -0.0026531545 0.050595954 -0.11011137 0.0927062 -0.1714253 -0.08955171 0.14938256
0.04275482 -0.0068578613 0.08389669 0.086014226 -0.03878526 0.11258073 0.18775746 0.018316042
-0.06083886 0.026691847 -0.04627154 -0.026496176 0.061724313 0.0010639254 -0.092838146 0.07528796
0.18284963 0.007726193 -0.14084364 -0.050921917 0.042885732 -0.077255145 0.051160477 -0.04594338
-0.02212338 -0.062791556 0.13986884 -0.017861694 0.022836305 0.004181113 -0.0021113006 0.02459625
-0.02269005 0.046965975 0.096544705 0.023592355 0.1039597 0.053567342 0.11756013 -0.048437197

conv3.0.bias f4 [120]
00000000: 9b10 a4bd 7031 173e cbf2 21bd 8508 463d
00000010: dc6f 72bc 6ea9 9dbd d2b3 da3b ddf9 b0bc
00000020: 02d2 1ebe 6bbf 06bd 31c3 8abb 112f 4d3d
00000030: 35d2 993a 99f2 d9bc 9f31 3fbc d2ce ed3c
00000040: f2e9 8e3d a725 693d ccd3 053d 983b 5fbd
00000050: 6492 1fbd d9cc 593d 7265 b23c 3678 b53d
00000060: 0d13 c63c 7436 323e c056 ad3c 42d4 bfbb
00000070: 6bf6 edbd d5fb a8bc 1d73 a03c 3ca6 12bd
00000080: 5308 aebc 6f3a 1fbe 1bb1 0bbd 2ff1 b93b
00000090: fde1 b93c 5e18 613c f4ca fdbc 3bc2 06bd
000000a0: a475 7fbd 0bd1 2ebd 0808 7d3d 4e2e f03c
000000b0: 2ef5 9ebd f742 853d 40a8 e53d 02ca a83c
000000c0: 871b 60bc 00d4 29be e253 b7bd 359a 903c
000000d0: 0bab 2e3d 33e2 81bd a36f 4bbd a424 9b3d
000000e0: 162c 6d3d 2ec7 d63c 51f2 183d 9c32 9dbd
000000f0: 4447 be39 5be6 5c3d c4fe 853d bcb1 3c3d
00000100: 0d56 52bd fc0f 72bd fd0d 3e3d fc22 f53c
00000110: 820e 033e ad3e dd3d a65a c93d 0bb3 9abd
00000120: c6e3 88bc 3906 03be eb0d 083e ddf1 2a3d
00000130: d568 0e3d 8afe d0bd 8507 003e 67db f83d
00000140: 57cb 67bd 268e d3bd 7222 6c3d 7fc2 1b3e
00000150: 194f 1ebd bfee 86bd 79aa 70bc 6feb 15be
00000160: a401 34be 9b04 b4bd ac63 22bd 95a7 3d3d
00000170: e065 a7bd ece9 b43d eb73 8cbd b0d8 853d
00000180: f56a 0b3d 9302 f2bd 7d28 febc 7d5c 403c
00000190: 962e 2dbd 2ffb 0abd 30ae 43bd da9d b0bd
000001a0: a578 38bd a8d5 bdbd e861 a6bd 81de a6bc
000001b0: 45d2 c0bb 8e7e f43d d988 b9bc 8656 2fbd
000001c0: 27f8 163d 35d4 95bd 4b23 e63d 1a30 7a3d
000001d0: 1f87 a7bb 0626 b53d c04a 4e3c c87b 893c
-0.0801098 0.14764953 -0.039538186 0.04834797 -0.014797177 -0.07698332 0.0066742683 -0.02160352
-0.15509799 -0.032897394 -0.0042346944 0.050093714 0.001173562 -0.026604937 -0.011669545 0.029029284
0.06978215 0.056920674 0.03267269 -0.054500192 -0.03895797 0.053173874 0.021776889 0.08860819
0.024179006 0.17403585 0.02115953 -0.0058541605 -0.11619266 -0.020627895 0.01958614 -0.035803065
-0.021244204 -0.15549634 -0.034104448 0.0056745033 0.022690767 0.01373872 -0.030980565 -0.032900076
-0.06236805 -0.042679828 0.061775237 0.029318955 -0.07761608 0.06506913 0.11213732 0.020604137
-0.013678438 -0.16584778 -0.08951546 0.017651657 0.042643588 -0.06341972 -0.049667012 0.07575348
0.05790337 0.026218023 0.037340466 -0.076756686 0.0003629272 0.05393062 0.06542733 0.04606794
-0.051351596 -0.059097275 0.04640006 0.029923908 0.12798503 0.1080297 0.09831743 -0.07553681
-0.016710173 -0.12795343 0.1328656 0.041734565 0.034767944 -0.102047995 0.12502868 0.12151223
-0.056590404 -0.10329847 0.057650037 0.15210913 -0.038649652 -0.06588506 -0.014689081 -0.14640592
-0.17578751 -0.08789941 -0.039645836 0.046302397 -0.08173728 0.088336796 -0.06858047 0.065354705
0.03403755 -0.11816897 -0.031025166 0.011740801 -0.042280756 -0.033930954 -0.04777354 -0.08623858
-0.04503693 -0.09269267 -0.08124143 -0.02036977 -0.005884441 0.11938201 -0.022648262 -0.042807125
0.03685775 -0.07315866 0.112372 0.06108103 -0.0051125432 0.08845143 0.012591064 0.016782656

fc1.weight f4 [84, 120]
00000000: ee47 313d 7853 2fbe 6e14 f53d aaf8 5c3d
00000010: 9969 6fbd 3664 1bbc a6eb 613d 8923 69be
00000020: c2c7 23bd 8d24 0a3e dc64 fc3d 329a 14be
00000030: 063c 153e f950 4abe e8b3 74bd 88e0 82bd
00000040: 8f67 21be f91e 8c3d 54e9 ca3d c24e 363e
00000050: f23d 063d b3aa 983a dad2 e8bc d3ee 07be
00000060: 3295 963e 71ea 8cbe bb06 c4bc 34af 12be
00000070: be3b 7a3e e4a0 d5bd c58b e8bd a116 ec3d
00000080: 3e9b 833d 5093 cf3d b7e1 57be 2747 dabd
00000090: e40d d33b 4960 c13c 3204 003e 73c8 00be
000000a0: 7661 643d 4787 923d 89fb ce3d 64f5 38bd
000000b0: b338 7abd 9a2d abbd b045 9abe 6056 2cbe
000000c0: 10e0 56be bfed 013e 2311 81bc d31e 32bd
000000d0: 7027 8ebe d6c8 153d 9a94 1ebe b4ac 32be
000000e0: 2fa4 193e 07a7 4abd da78 e13c 02d8 c33d
000000f0: 370a 0d3e 4edc 23bd 5229 11be 551c 0fbd
00000100: c56e d23b d4d1 a83e 345e 903a f8d8 68be
00000110: 6cac 92be f0d3 ce3d f058 353e 00bb 853d
00000120: e166 a93d b4d7 fd3d 1e07 4c3d 75c8 ddbc
00000130: e8eb 363b 34e1 14bd d936 64be 7c34 7fbd
00000140: 2495 363e 230e 903d a676 37be 7d89 bc3d
00000150: 33b0 c13d f8eb 413e b12d 48bd cfc7 3c3e
00000160: 2dab 473e 3c4a 413d d608 a3bd ea3c 283e
00000170: b5e2 413e 0e0e b53d 55b3 473d 98e9 2a3e
00000180: 7429 a53c c707 8c3c 2c37 53be a01a b0bc
00000190: 7ecf 8ebe 2895 0cbe 01d9 873d 24f3 40bd
000001a0: 7075 85be 478a c43c 67fa c43d 70a9 f8bb
000001b0: 20e9 4ebd bfb3 03bd 9418 4cbe 50dc 86bd
000001c0: a882 093e 8890 41be 68e2 e83d 3bc8 143e
000001d0: f63a 393e c206 083e 6f7c 21be 47b1 2c3e
000001e0: dcf8 d53d d3c6 98bc f8f6 26be 0a66 1fbe
000001f0: b045 dd3d 4b9a ecbd b61a 5ebe 664a 28bb
00000200: fad8 043d 8399 2bbe 9674 5a3d 8f98 09bc
00000210: 635f 373e 443a 8cbe ae9a 5abe dfc1 dabd
00000220: 1212 4f3d 6e0f 843d 0797 4c3e 716e 1b3e
00000230: 41d6 a63b 0303 12be aa42 1bbd 0845 c7bd
00000240: 68de 4f3e fc1a 7fbe 4603 8fbe 5bd8 42bd
00000250: 65aa 673e 405e 1ebe b33d 723d 0d5f 65be
00000260: c29a 03bd c930 363e 1f87 f33d d179 633c
00000270: 86a2 ba3d 506e adbc a208 263e 73b1 14be
00000280: b1b5 193e 4a9c 1b3e 2680 213d 90cb 113e
00000290: bcb9 9cbd 61f1 873c cf1e b3bd 1d43 6c3d
000002a0: 3319 ae3d 7e78 86bd 84b6 9abe d61c 8e3d
000002b0: 0c38 04bc e378 d13d 05d8 c73d 8a68 b4ba
000002c0: a4da 7b3e 2a9e 82be 8327 c6bd 6520 133e
000002d0: aa9d 6ebe 8bb4 503d 87d3 2fbe f870 113e
000002e0: efb0 6cbd bfc7 363e fb38 9f3d 6152 4cbe
000002f0: 25e5 fdbd 73b4 adbd d8b0 3e3b c7b5 843d
00000300: 7642 94b9 82de 6d3e 740d a13e 3e3a 093e
00000310: 5b0a 8abc f50e 973d c11e 11be f647 5a3d
00000320: 7f07 8fbd aea6 41bc ded7 ecbd 6ff6 f8bc
00000330: 53e0 d73d 0190 8b3e 846e fb3d 81ca d93d
00000340: b41b 063e 3e27 c23e 692d 0abd 3c96 b83c
00000350: a546 fb3d 1168 35bc 237c 0d3d 48ae 123e
00000360: 6b96 d4bd 0dac 493c 6549 0d3d 7b12 b03d
00000370: 8fdd 96be ed32 e43b c9dd 52bd 3aa7 9a3d
00000380: afc8 12be ca90 2dbe b1f6 80bd 62a5 95bd
00000390: b60b babd 39ee 6ebd 5805 fcbc 2614 72be
000003a0: ef27 493e 937e e53d 6d66 363d a853 e83d
000003b0: 3894 ec3d c3fa 3a3e a778 e6bd 6368 b53c
000003c0: 9262 023e 487e 26be daa4 ff3c 6aed 9b3d
000003d0: 341a 953d e058 cc3d 2ddb 203e a351 b33d
000003e0: b527 2abe dac5 babc 6d6c 313e bf55 7b3c
000003f0: db93 03be d0d3 64bd 0756 48be 97cb b83e
0.043281488 -0.17121685 0.11966787 0.053948082 -0.058450315 -0.009484341 0.055156372 -0.22767462
-0.039985426 0.13490506 0.12323925 -0.14511946 0.14573678 -0.19757451 -0.059741884 -0.06390482
-0.1576216 0.06841845 0.09907785 0.17803481 0.03277392 0.0011647552 -0.028420854 -0.13274698
0.29410702 -0.27522615 -0.02392899 -0.14324647 0.24436852 -0.10431078 -0.11354784 0.115277536
0.064260945 0.101355195 -0.21082197 -0.106581025 0.006440865 0.023605483 0.125016 -0.12576465
0.05575701 0.07154708 0.1010657 -0.045155898 -0.06108923 -0.08358307 -0.30131292 -0.16829824
-0.2098391 0.12688349 -0.015755242 -0.043486428 -0.27764463 0.036568485 -0.15486374 -0.17448694
0.15004037 -0.049475696 0.027523447 0.095626846 0.13773428 -0.04000502 -0.14175919 -0.03493913
0.006421896 0.32972586 0.0011014403 -0.22739017 -0.28647172 0.100990176 0.17709708 0.06529808
0.08271576 0.12394658 0.049811475 -0.027073124 0.0027911607 -0.036347583 -0.22286548 -0.062305912
0.1783033 0.07033946 -0.17916355 0.09205911 0.094574355 0.18937671 -0.0488717 0.18435596
0.19498892 0.047189936 -0.0796067 0.16429487 0.18934138 0.08840571 0.04875501 0.16690671
0.020161368 0.017093552 -0.20626515 -0.02149707 -0.2789268 -0.13728774 0.06633187 -0.047106877
-0.2606616 0.023991717 0.09618073 -0.007588558 -0.050515294 -0.03215384 -0.19931251 -0.0658499
0.13428748 -0.1890279 0.113713086 0.14529507 0.18088898 0.13283828 -0.15770124 0.16864501
0.10447857 -0.018649494 -0.16305149 -0.15566269 0.108043075 -0.115528665 -0.21689877 -0.002567911
0.032433487 -0.16757779 0.05333384 -0.008398189 0.17907481 -0.27388203 -0.21348068 -0.10681509
0.050554343 0.064482555 0.19979487 0.15178849 0.005091459 -0.14258961 -0.037905373 -0.097299635
0.20299685 -0.24912637 -0.27932185 -0.047569614 0.22623594 -0.15465641 0.059140872 -0.2239954
-0.03213001 0.17792048 0.11891007 0.013884024 0.0911303 -0.021170765 0.1621423 -0.14520817
0.15010716 0.15196338 0.039428852 0.14237809 -0.076526135 0.01659459 -0.08746111 0.05768119
0.085009 -0.06565951 -0.30217373 0.06939094 -0.008070003 0.102281354 0.09757999 -0.0013764065
0.24595124 -0.25511295 -0.09675505 0.14367826 -0.23302332 0.05095343 -0.17170535 0.1420325
-0.057785925 0.17849635 0.0777454 -0.199533 -0.123972215 -0.084816836 0.0029097106 0.06479984
-0.00028278277 0.23229411 0.31455576 0.13401124 -0.016850641 0.073759 -0.14171888 0.053291284
-0.06983852 -0.011819525 -0.11564611 -0.030390946 0.10540833 0.27258304 0.122769386 0.10634328
0.13096505 0.37920564 -0.033734713 0.022532575 0.12269334 -0.011072175 0.034542214 0.14324296
-0.103802525 0.0123090865 0.034493823 0.08597275 -0.2946591 0.0069640786 -0.051481042 0.07551427
-0.14334367 -0.16949764 -0.06297053 -0.07306935 -0.09084265 -0.058332656 -0.030764267 -0.23640499
0.1964414 0.11205783 0.044531275 0.11344081 0.11551708 0.1825972 -0.11253481 0.022144502
0.12732914 -0.1625911 0.031206537 0.076136425 0.072803885 0.09977889 0.15708609 0.08755805
-0.1661671 -0.022799421 0.17326517 0.015340268 -0.12849371 -0.055866063 -0.19564067 0.36092827

fc1.bias f4 [84]
00000000: 7980 61be eb4e 653c 9a09 543b 9f67 c33c
00000010: 8605 25bd 4340 ee3d a9ab 41be 2fa4 f0bd
00000020: 7b92 bb3d 61c0 413d 9ab6 7cbd f013 e7bc
00000030: cba5 363d 4633 b83d 1f08 06bd 72fb 6e3d
00000040: f4d9 603d cf4a 313d 6362 d3ba ac81 543c
00000050: e0e5 5bbc b9cb 75bd a8da 9d3d 2837 db3c
00000060: ad5a b8bd 13ee 8b3c b7db b0bd 7f26 583e
00000070: 2b8d f43d 1a71 813c 0787 783d 0631 9cbd
00000080: c7a0 ed39 99f4 4f3d 515d 81bc 93eb 0d3a
00000090: 5cee d1bd b105 5fbd 71a5 353e e24e 683d
000000a0: b4b1 e9bc faf1 ffbd 2fea 6a3d 8e62 883d
000000b0: 6b24 8c3b fcfb 23bd 2716 05bd a81f 07be
000000c0: 059f ae3d d02e 0ebe 67c0 e03d a562 813d
000000d0: 5ba9 153e 5d17 40bd 7439 533e 57ac 303d
000000e0: 3168 62bd 415d aa3c 6b8b a9bd 02ba aebd
000000f0: 7cf1 a03d 8410 d0bb 5565 95bd f652 2b3e
00000100: 9c83 e6bd cda9 f83d 0efb 283e 125d 6cbe
00000110: 92e5 98bc 5a2a 96bd 45a0 e0bd b15e 9dbd
00000120: 297d d5bd 9a0a 3fbd d3e2 633b 0d5c 213e
00000130: 7486 80bc 12f9 3d3e d317 afbd 5756 89bc
00000140: 9f5e 58bd 0a14 febd 291a 043e b954 2dbd
-0.22021665 0.013995866 0.0032354356 0.023853121 -0.04028847 0.11633351 -0.1891314 -0.117500655
0.09158798 0.047302607 -0.06169758 -0.02820775 0.044591706 0.08994155 -0.03272259 0.058345266
0.054895356 0.043284234 -0.0016127344 0.012970369 -0.013421506 -0.06000874 0.07707721 0.026759699
-0.0900167 0.017081296 -0.08635657 0.21108435 0.11940988 0.015801001 0.060675647 -0.07626538
0.0004532395 0.050770376 -0.015791567 0.00054138264 -0.102505416 -0.054448787 0.17738892 0.056715854
-0.028527118 -0.12497325 0.05735224 0.06659423 0.0042768023 -0.040035233 -0.03249183 -0.1319567
0.08526424 -0.13885045 0.10974198 0.06317643 0.14615385 -0.04689728 0.20627385 0.043133106
-0.055275146 0.02079642 -0.08278545 -0.08531572 0.078585595 -0.006349625 -0.07294718 0.16730866
-0.11255571 0.12141762 0.1650202 -0.23082379 -0.018664155 -0.07332297 -0.10968069 -0.076840766
-0.10424263 -0.04664097 0.003477265 0.15757771 -0.015689112 0.18552044 -0.08549466 -0.016764803
-0.052824613 -0.12406166 0.12900604 -0.042317126

fc2.weight f4 [10, 84]
00000000: a5c6 c2be 86cc 943d a845 57be 3c3b ebbd
00000010: 4328 9ebe 3711 e73b b195 023e 70f0 12be
00000020: a9d5 c7be b12d 013f cf00 253e 6e48 623e
00000030: 8f02 c23c b612 2c3e 8f82 d8be 9042 6c3e
00000040: 04db a5be 478e 973c 9e6e 5d3e b7ba 573e
00000050: a13c d2be 0440 7a3e 41c0 3a3e dd9a 1bbe
00000060: d4af 283e bee1 cbbd a072 f1bc e34c 38be
00000070: e9ab 71be 8dac 1e3d b42d 7abe 7814 40be
00000080: ace0 373e 977a 9fbe 8e34 9fbe 924c b13e
00000090: a3bc 053e 1f92 5c3e 159d ecbe 8179 b33e
000000a0: ac0d ec3d 50d1 c8bd 5206 c93e 84dd 893e
000000b0: 55a5 023e 0880 d0be 902f 9e3d 75e2 c3be
000000c0: d5be 3e3e 8146 983e 9ffc 48be 3dc8 ecbe
000000d0: cfa5 983d f77c 25be 186f f03e 5479 b0be
000000e0: 9317 9e3e d397 37be 4b17 70be c39c 25be
000000f0: 39da 913e 0f33 40be 3e5b 4cbe d29d 61be
00000100: 7ec5 df3e 9666 f1bc b20b 6a3e 3965 cdbe
00000110: b4b9 7b3e d8dd c7bd 2207 88be e744 3cbe
00000120: 574d a53e 241e 6ebd 0a76 d53d caaf 033e
00000130: 196b 743c 5be2 47be 0921 2cbe 25dd e13e
00000140: 41f1 a93c 58f1 aa3e af52 9e3e 1089 89bd
00000150: 6e58 e7be 976a d0be a406 6a3e b707 b23e
00000160: 4f11 973d d7dc 85be 0199 e0be cede a7be
00000170: c279 28be 0bd1 ac3d 4ba9 0abe 1916 043e
00000180: 9179 d8be a169 87be 77d4 23be 44f7 3c3e
00000190: 1b03 f73d 677a 4bbe 07b9 1cbe 1d16 96be
000001a0: 9b75 3e3e c002 62be 08d1 88bd 0a58 d93e
000001b0: fd23 cbbe 2f1a bc3e f453 4abe 1448 f93d
000001c0: 0e6f 01be 61b9 cb3e a613 553e 59c3 293e
000001d0: ed7a 51be 5f60 3c3d 00cb 143d 9235 2abd
000001e0: 09fd bd3e 93f8 79be b4b4 123d bf80 6dbe
000001f0: 0fd4 b6be fb9d 153e f698 19be 7dc9 01be
00000200: 0783 82be 0bfd e13d a131 eb3d 2a52 b1be
00000210: 83c5 483e 3247 a1bd 20d0 8bbe 2087 b43e
00000220: 15f9 663e 434a 8b3e e20e a43e 2d1f 8dbb
00000230: bfa1 f73c 2e8d 6e3e 2217 0cbf 5fd7 a13e
00000240: e390 94be a77c 5c3e 38e2 143e 8113 a2be
00000250: 5c46 ae3c 98b8 143e 9b70 3bbe 448e 05bf
00000260: d00b 9ebe af78 8d3e 82e9 67be f4d6 0fbd
00000270: d7d4 9fbe 40ac 9e3e 1f6b 2fbe 1d42 be3e
00000280: 1f7f b43e 7725 743e a5f5 1a3e eec2 a5bd
00000290: 7d54 cebe dc27 b2be ee72 3cbe 58ab d4be
000002a0: 0d44 9dbe 610a 873e 707e 01be 7760 63be
000002b0: 234a 2b3e 3dc9 b23e 8009 d63e a3ac febd
000002c0: 54c9 833e a0fc abbe b5fa 9a3e 1a48 2b3e
000002d0: b2e7 2e3d b992 f83e cb02 9b3e 2503 873e
000002e0: cb71 bd3e 0be6 a8be 248c 6b3d c40e 00be
000002f0: e9cf b3bd 6339 f1bd b86c b4bd 7c66 263e
00000300: 054a febe 3abe fd3e 3f15 7bbd dfc9 a73e
00000310: 6c92 06be 270c 91bd 693d c4be 9372 a2be
00000320: 5f35 4dbe 0747 d1bc 4e63 19be a9fa b23e
00000330: de57 a3be 7314 bfbd 3b1d f03e 6863 99be
00000340: a16b 5dbe 79ed 263e 5af6 c9bd 8473 a9be
00000350: 3821 5f3e b42e 873e 3966 d33d e539 a8be
00000360: f560 8dbe cf16 c9be 9d21 6abd 5a44 22be
00000370: 2655 813d 4ea1 e3be bdbc a23e 4a52 883a
00000380: e5c2 f7bd 7220 9a3e d3dd 823e 245a 933e
00000390: 1ef4 033f 74be 99be af78 87be 6066 723e
000003a0: 5b43 a03e b7a4 96be 7a0c 953e d25c 78be
000003b0: 9b1f 96be 46e1 b53e f04a a43e c664 3abe
000003c0: c763 173e 7bbc 20bc 42b4 553e 120c 76bd
000003d0: 3edd b9be 61d2 4dbd c9bf 2e3b 4d3b 4abe
000003e0: 0402 33be ae86 943e 91f0 0ebe 8a23 a5be
000003f0: 0d45 323e 3e8c 943e d669 72be dc67 923b
-0.3804218 0.07265572 -0.21022666 -0.114859074 -0.30890092 0.0070516127 0.12752415 -0.14349532
-0.39030197 0.50460345 0.1611359 0.22097942 0.02368286 0.16804013 -0.42287108 0.23072267
-0.32393658 0.01850046 0.21624228 0.2106732 -0.4106188 0.24438483 0.18237402 -0.15195794
0.16473323 -0.09955166 -0.029473603 -0.1799808 -0.23600735 0.038738776 -0.24431497 -0.18757808
0.179568 -0.31148216 -0.31094784 0.3462873 0.1306024 0.21540116 -0.46213594 0.35053638
0.11526045 -0.09805548 0.39262635 0.26926816 0.12758382 -0.4072268 0.077239156 -0.3825871
0.18627484 0.2974129 -0.19627617 -0.4624652 0.074535005 -0.16160952 0.46959758 -0.34467566
0.3087736 -0.1792901 -0.23446386 -0.16173081 0.28486803 -0.18769477 -0.19956681 -0.2203286
0.43705362 -0.029467862 0.22856024 -0.4011629 0.24582559 -0.0975911 -0.26567942 -0.18385659
0.32285568 -0.058134213 0.10422905 0.12860027 0.014918112 -0.19519942 -0.16809477 0.44114032
0.020744922 0.33387256 0.30922458 -0.06715596 -0.45184654 -0.40706322 0.22854096 0.3477151
0.07376348 -0.2614505 -0.43866733 -0.32787174 -0.16452697 0.08438309 -0.13541143 0.12899055
-0.42280248 -0.26447776 -0.15999018 0.184537 0.12061139 -0.19870912 -0.15304957 -0.29313746
0.1859955 -0.22071362 -0.066804945 0.4244998 -0.39675894 0.36738726 -0.19758588 0.12171951
-0.1264002 0.3978987 0.20808277 0.16578425 -0.20457049 0.045990344 0.03632641 -0.041554995
0.37107113 -0.2441123 0.035816863 -0.23193644 -0.35708663 0.14611046 -0.14999756 -0.12674518
-0.2549059 0.11034592 0.11484075 -0.34633 0.19606595 -0.078749076 -0.27307224 0.35259342
0.22555955 0.27205095 0.32042605 -0.004306695 0.030228494 0.23296043 -0.547228 0.31609628
-0.2901679 0.21531926 0.1453942 -0.31655505 0.021273784 0.14523542 -0.18304674 -0.52170205
-0.30868387 0.27631137 -0.2264767 -0.035117105 -0.3121707 0.3099079 -0.17130707 0.37159815
0.35253236 0.23842417 0.15132768 -0.080938205 -0.40298834 -0.34796035 -0.18403217 -0.41536975
-0.3071598 0.26375106 -0.12645888 -0.22204767 0.167275 0.34919158 0.41804123 -0.124352716
0.2573954 -0.33591175 0.302694 0.16726723 0.04270143 0.4854944 0.30275568 0.26369587
0.3700088 -0.3298801 0.057506695 -0.12505633 -0.0877989 -0.11778524 -0.08809799 0.16250032
-0.49665847 0.49559194 -0.06129956 0.32771203 -0.13141793 -0.07082396 -0.38328102 -0.31728038
-0.2003989 -0.025546564 -0.14979288 0.34956864 -0.31902975 -0.09330072 0.468973 -0.29958653
-0.21623088 0.16301526 -0.09861441 -0.33095944 0.21790016 0.2640282 0.10322232 -0.3285667
-0.27613035 -0.39275214 -0.057160962 -0.15846387 0.06315069 -0.44459003 0.3178462 0.0010400501
-0.1209772 0.3010288 0.25559863 0.2877971 0.5154437 -0.30028117 -0.26459262 0.23671865
0.31301388 -0.29422542 0.2911108 -0.24254158 -0.29320988 0.35523432 0.32088423 -0.18202505
0.14784156 -0.009810562 0.20869544 -0.060070105 -0.36301607 -0.05024946 0.0026664606 -0.19749184
-0.17481238 0.29009002 -0.13958956 -0.32253677 0.17409153 0.29013246 -0.23673186 0.0044679474

fc2.bias f4 [10]
00000000: f3fc 1abe 1dc6 503e b7c8 243d 2427 f7bd
00000010: 9c67 083d 2496 243e 9215 d53c e02b 213e
00000020: 3c0c 48bd a0ef 27bd
-0.15135555 0.20388074 0.04023048 -0.12068012 0.033301935 0.16072899 0.026011262 0.15739393
-0.048839793 -0.04100001
