model_2_PGD.pth (torch, 250608 bytes, 10 tensors)

conv1.0.weight f4 [6, 1, 5, 5]
000000 c0 4d bc bc be 84 c8 3c b0 a5 e2 bd bd ec e6 3d
       -0.022986293 0.024477359 -0.11066759 0.11275623
000010 c1 00 c7 3d 01 4c 00 3d bc 69 cb bd 9d 5e 81 3e
       0.09716941 0.031322483 -0.099322766 0.25267497
000020 e5 61 2b 3e 3e 6e 4d 3d 21 07 43 be 38 89 04 bd
       0.16736563 0.050153963 -0.19045688 -0.032357424
000030 72 6f c7 3e 19 42 bb 3e ed 6b b0 bb f9 90 00 be
       0.38952214 0.36573866 -0.0053839595 -0.12555303
000040 c7 a2 ce be f4 72 4f be 6e e9 8d bd 9b 0c 51 bd
       -0.40358564 -0.20258695 -0.06929289 -0.051037412
000050 b3 35 32 bd cb cb 30 bf 79 8c fa be b1 47 42 be
       -0.043508243 -0.69060963 -0.48935297 -0.1897266
000060 e1 20 90 bd 48 77 13 bd 32 cd 9e 3c 06 ea af 3d
       -0.07037521 -0.036002427 0.019384954 0.08589558
000070 cf fb 25 3e 61 8b 27 3e 18 c8 c1 3c 04 4c f8 ba
       0.16209339 0.16361763 0.023654982 -0.0018943553
000080 24 86 ed ba 04 25 d0 3d 22 bf 35 3e 35 13 bf bd
       -0.0018121642 0.1016331 0.17748693 -0.09329835
000090 70 f9 21 bc 75 85 21 bc d1 45 b5 bc a2 c0 c0 3d
       -0.009886131 -0.009858479 -0.022128018 0.09411742
0000a0 91 b4 c2 bc 55 ef 0e 3d 2f 04 9d bd 0a 04 36 bc
       -0.023767741 0.034896214 -0.076668136 -0.011109361
0000b0 5f fe 6b be 40 32 78 bc 78 9b 5b 3d 77 96 d4 bd
       -0.23046254 -0.015148699 0.053615063 -0.103802614
0000c0 eb 2b 54 be 55 dc 28 bd 58 b6 3e 3e 78 f2 07 3e
       -0.20719878 -0.04122575 0.18624246 0.13276088
0000d0 19 14 48 3e 4d 57 10 3e e8 26 97 3d c1 cd d9 bc
       0.19538917 0.14095803 0.07380468 -0.026587369
0000e0 d5 c0 2e 3d b3 9d b5 bc 31 17 2e 3d e4 89 b3 3d
       0.042664368 -0.022169923 0.042502586 0.08766535
0000f0 74 af a4 be 8d 3a de bf 63 4b b2 be 52 bb bc 3d
       -0.3216511 -1.7361618 -0.3482314 0.09215416
000100 46 05 a2 3d 06 29 9c bf 03 ff 05 c0 d4 62 b6 3d
       0.07911162 -1.2200019 -2.0936897 0.08905569
000110 81 0d ff bc ea ea c7 3c 40 8d 04 3d 6b 2b 83 bd
       -0.031134369 0.024404008 0.03236127 -0.06404766
000120 00 9c 97 bd 7d 7c d3 3d 27 e0 6d bd c9 90 f2 3d
       -0.074028015 0.10326479 -0.058075096 0.11844022
000130 f9 2f 77 3d f8 22 af 3b 97 c9 7f 3d 0e 4f b0 3c
       0.060348485 0.005344745 0.06244811 0.021522071
000140 b2 32 7f 3e b7 8b 59 bf 4e 85 ba 3d b5 d6 b3 3d
       0.24921682 -0.8497881 0.09107457 0.087811865
000150 fb cc 16 3d f4 aa e4 bf ce cc 52 c0 6a 71 74 3c
       0.03681658 -1.7864671 -3.2937503 0.014919618
000160 d0 3d 90 3d ab 9a 12 3d c2 07 2a be 2e 08 e2 be
       0.0704304 0.035792034 -0.16604522 -0.44146866
000170 6e 8f cc 3d 24 41 5f 3d f0 ab 6d 3d 5c 8b 79 3e
       0.099882945 0.054505482 0.0580253 0.24369568
000180 d4 5c cb 3d 93 54 9f 3c f3 fe 5e 3c 06 96 b8 3c
       0.09929815 0.019449508 0.013610589 0.022532474
000190 66 b2 2a bd e4 05 29 bd 18 f9 51 bc 91 3d cf bd
       -0.04167404 -0.041265383 -0.012815736 -0.10119165
0001a0 f6 02 82 bd 5e bf 8e bd 6b 9f b7 bd 3f ba 97 3d
       -0.06348221 -0.06970094 -0.089659534 0.074085705
0001b0 fa bd 16 bd b7 24 67 bd 74 29 5c bd 4d 4e f1 3c
       -0.03680227 -0.0564315 -0.05375047 0.029456282
0001c0 67 2b cc 3c 50 f0 4f 3d 36 26 53 be 56 b6 d2 bc
       0.02492304 0.05076629 -0.20620045 -0.02572171
0001d0 c9 6e 37 bd bd d4 37 bb 4e bb 29 bd 89 32 99 bd
       -0.044783387 -0.0028050386 -0.041438393 -0.07480342
0001e0 1b 11 00 be f4 c1 14 be e5 eb 0d be 22 eb 14 be
       -0.12506525 -0.14527112 -0.13859518 -0.14542821
0001f0 67 46 b2 3b 23 a6 78 3e 32 3c 3d bc d4 d5 66 be
       0.0054405215 0.24282126 -0.011549996 -0.22542506
000200 14 bb 5e 3e ea 15 fe bb 89 7e 84 3d ab 06 a4 bf
       0.21751052 -0.007754077 0.06469447 -1.2814535
000210 e6 ea e7 bf 8a 34 d4 3d 30 2b 22 bc d9 54 b3 3d
       -1.811856 0.103615835 -0.009897992 0.08756418
000220 59 83 20 bf ce c1 e9 be ad 71 59 bb cf e6 25 3d
       -0.6270042 -0.45655674 -0.0033179328 0.04050332
000230 17 80 8d 3e 10 59 39 3e d5 5c 4d 3c 97 32 f5 3d
       0.27636787 0.18100381 0.01253434 0.1197254
000240 27 3f 09 bd 81 6e a9 3b 04 0a 8c 3a a8 78 74 3d
       -0.033507492 0.005170644 0.0010684137 0.05968538
000250 a2 91 9e bd d8 a4 ea 3c
       -0.07742621 0.028643057

conv1.0.bias f4 [6]
000000 23 6f 0c 3e 9a ae 4d be 50 2b f1 3f 54 4c 0c 40
       0.1371427 -0.20086136 1.8841343 2.1921587
000010 15 48 4b be 86 9e c9 3f
       -0.19851716 1.5751503

conv2.0.weight f4 [16, 6, 5, 5]
000000 aa 96 7e bc 8a 8f 1b bd dc 31 cd bd 39 3b 5e bd
       -0.015538851 -0.037978686 -0.100192755 -0.054255698
000010 08 0e dd 3d 8b 58 66 bc f5 36 be bd d2 04 e0 bc
       0.10793692 -0.014059196 -0.09287826 -0.027346049
000020 76 7d bb 3d af ad 3a 3e 43 ff 74 bb 11 17 ba 3c
       0.09154789 0.18230318 -0.0037383593 0.022716077
000030 29 18 be 3d 6a 50 1d 3d a5 3f c7 b9 0b c9 07 3d
       0.09281952 0.038406767 -0.00038003657 0.033150714
000040 37 25 34 3b 3a 55 8f bd 8a 1e 48 bd 86 0f 3c 3a
       0.0027488002 -0.069986776 -0.04885725 0.0007173944
000050 5a cf 89 bc 35 85 34 bd f0 bd 8c bb a2 04 e3 bb
       -0.016822506 -0.04407235 -0.0042951033 -0.0069280425
000060 21 03 d9 bc a0 91 bf bc 3e 44 28 bd 17 26 f7 3b
       -0.02649075 -0.02338487 -0.041080706 0.0075423825
000070 85 0a 1d 3d 03 f9 6a bd 27 cf 5e 3d b8 e8 1b 3e
       0.03834011 -0.057366382 0.054396775 0.15225494
000080 03 c1 44 3e 06 69 09 be c0 28 0e be e6 e6 0d 3e
       0.19214253 -0.1341897 -0.13882732 0.13857612
000090 26 df 12 3e 43 b7 b0 bd d8 d3 40 be 05 dd 53 3d
       0.14342937 -0.086287044 -0.18830812 0.051724453
0000a0 09 1f 07 3e 5c a3 d0 3d 30 ea 0a be cc ae 4c bd
       0.13195433 0.10187408 -0.13565898 -0.049971387
0000b0 d4 70 65 3c d8 c2 d3 3c 90 3b 82 bd 2c 67 9f bb
       0.014003951 0.025849745 -0.06359017 -0.004864594
0000c0 77 d2 3c bc 1e 05 bc 3c af 7c 1a 3d 1f fd f1 3d
       -0.011524788 0.022951659 0.037716564 0.11815857
0000d0 b0 82 58 3c e0 b5 2f 3d 14 c4 6c 3c 7f 5a 22 3e
       0.013214752 0.04289806 0.014451046 0.15854834
0000e0 f3 87 a3 3d 12 e5 42 3e 9f 48 82 3d a5 5f 49 be
       0.07984915 0.19032696 0.063615076 -0.19665392
0000f0 e7 fc 29 bd af 36 e5 3d dc a7 cc 3c 89 cd 96 be
       -0.041500952 0.11192071 0.024982385 -0.29453686
000100 00 da 7a bd e7 74 06 be 98 6f cc bd 1a 5b 8d be
       -0.061243057 -0.13130532 -0.09982222 -0.27608567
000110 5f 96 a1 ba 34 41 27 3e b9 ab b3 bd 1b 6a d9 bd
       -0.0012328139 0.16333467 -0.08772988 -0.10615941
000120 58 40 69 3c 1a b4 00 3e ff ee 77 3d a8 1d 94 3e
       0.014236532 0.12568703 0.06053066 0.28928876
000130 a0 fb 34 3e 06 50 32 3e 87 6a b4 3d 63 af 23 bc
       0.17674112 0.17413339 0.08809381 -0.009990546
000140 67 4d db 3d e4 ac 0f 3e b8 38 d7 3e 8a fe a0 3e
       0.10708123 0.14030796 0.4203546 0.31444198
000150 12 68 55 be 76 9c 88 3d fc 0c 9d 3e a0 0c 81 3e
       -0.20840481 0.066704676 0.3067397 0.25204945
000160 7d 7c 11 bf fb 10 24 bf 23 75 ca 3d 67 fe 38 bd
       -0.5683058 -0.6408841 0.09885623 -0.045164492
000170 04 a7 0b bf 64 17 04 bf da 40 07 3e 4e 9c ed bc
       -0.5455172 -0.5159819 0.13208333 -0.029005196
000180 88 21 99 be a6 48 8a be b4 b1 54 3e 52 ac 66 3e
       -0.29908395 -0.2700855 0.20770913 0.22526672
000190 69 9c 42 3b 89 d5 18 bd 1c 28 27 be 12 40 b9 3d
       0.0029695278 -0.037313018 -0.16323894 0.090454236
0001a0 d7 df 9e 3c bf dc 05 be 9d ee ea bd 4a cd ad 3d
       0.019393845 -0.13072489 -0.11471293 0.084864214
0001b0 a4 46 35 3d c7 31 0e 3c 99 0a a9 bd e7 83 2c 3d
       0.04425682 0.00867886 -0.082539745 0.04211798
0001c0 79 43 b7 3d 0a 3c 5f bd e5 3a ac bd e7 e6 aa 3c
       0.08948416 -0.054500617 -0.08409671 0.020862056
0001d0 88 de 1c 3e 86 6b 03 3e 18 2f 8c bd c7 28 3c bd
       0.15319264 0.12833986 -0.0684492 -0.045937326
0001e0 cd cd 9a 3d 42 ec 6b 3d d6 a3 4d 3d 02 71 19 3d
       0.07558785 0.05759836 0.050205074 0.03746129
0001f0 33 36 0d 3d f8 0e 77 3d ed 7f bc 3d f2 dc f7 bc
       0.034475517 0.06031701 0.092040874 -0.030256722
000200 f9 9c fd 3c b4 49 44 bc c6 25 10 3d a3 26 b8 3d
       0.03095864 -0.011980463 0.035192274 0.08991744
000210 e3 b1 f2 3d 5f b6 bd 3d c8 3d b1 bd b3 2a 10 bd
       0.118503354 0.092633 -0.08654362 -0.03519697
000220 22 58 32 3e 1b 41 66 3e b1 b1 0f be d0 2a c3 be
       0.17416432 0.22485773 -0.14032628 -0.381186
000230 0a 7d 61 bd a0 d0 21 3d e7 5e 21 be 83 30 6b be
       -0.055050887 0.0395056 -0.15758859 -0.22967725
000240 d1 69 74 3d 65 b6 24 bc 1f 71 dc bd de 9d d5 bd
       0.059671227 -0.010053252 -0.10763764 -0.104305014
000250 1a 75 1d 3e 3b ca 8b 3d 63 55 64 3d 97 c4 86 3d
       0.15376702 0.06825682 0.055745494 0.06580465
000260 ab 74 39 3d 9e 7e c2 3d 10 8f 7c 3d 4f 6f 7e 3d
       0.04527728 0.094968066 0.061659873 0.06211787
000270 84 b8 3b 3e aa 6d b4 3e 79 98 54 3e 9b 9d 87 3d
       0.18332106 0.35239917 0.20761289 0.06621858
000280 50 4c e1 ba 2a ae a5 bc 46 8a 6e bc 9f 8c bb bd
       -0.0017188881 -0.02022465 -0.014559334 -0.09157681
000290 b5 dd b1 bc e1 cb cf 3d 4e 84 16 bd 0a 71 f9 bd
       -0.021712163 0.10146309 -0.03674727 -0.121797636
0002a0 af 7e 14 3d ff d7 90 bc b3 7c a0 3c 91 16 31 3d
       0.036253627 -0.01768112 0.019590711 0.04323441
0002b0 9e 96 2f 3c d3 c6 d4 3c ca 50 9e bc d8 d2 3e be
       0.010717062 0.025973713 -0.019325633 -0.18635118
0002c0 e1 13 34 be 78 76 92 bd f1 54 c6 bd 23 3f dc bd
       -0.17585708 -0.07151502 -0.0968417 -0.1075423
0002d0 42 23 85 bd f7 3d ef 3d 2e f4 9a 3d 31 21 00 3e
       -0.065008655 0.11681741 0.07566105 0.12512662
0002e0 d9 54 1c be 1c b9 0d bd 7d c3 37 be a5 2d 99 be
       -0.15266742 -0.034600362 -0.17945667 -0.29917637
0002f0 f5 fc 3d be 4e e0 22 bd 12 e8 a8 be 69 0e 40 bd
       -0.18553527 -0.039764695 -0.32989556 -0.046888743
000300 8c e8 9c bc 44 64 87 3d 8d 29 9b bc fa 7d f8 bd
       -0.019153856 0.06610921 -0.018940711 -0.12133403
000310 83 4d 2f bd 6f 79 6a bd c4 3d 09 3d 66 74 ec bc
       -0.04279853 -0.057244714 0.03350617 -0.028864097
000320 9b 1c f9 3c b4 d9 24 3d 45 16 21 3e dd 62 7f 3e
       0.030409148 0.04024668 0.15731151 0.24940057
000330 ea f8 96 3e 41 3e 3c 3c 98 c6 4a bd 3d ab 87 bd
       0.2948678 0.011489452 -0.0495058 -0.06624458
000340 e2 cf 57 be c2 b5 fd bd 54 dd 05 3d 85 6f 2a bd
       -0.21075395 -0.12388183 0.032681778 -0.04161026
000350 b5 54 ea be 20 c0 a8 be 1c d1 83 3c a7 68 c6 3c
       -0.4576775 -0.3295908 0.016090922 0.024219824
000360 83 48 4d 3e 46 0f 8a 3e 59 f5 85 3e 15 a4 86 3d
       0.20047192 0.26964778 0.26163748 0.06574265
000370 6b 85 1e bd 19 48 4b 3d 30 f5 5c 3e 21 59 00 be
       -0.038701456 0.049629305 0.21577907 -0.12534
000380 4f 4b 68 bd 35 e5 47 3c 93 c0 85 3a 6d 2f 37 3e
       -0.056712445 0.012200643 0.0010204486 0.17889185
000390 59 be 7c 3e 76 93 95 3e 81 29 54 bd 18 11 ae bc
       0.24681987 0.29214066 -0.051797394 -0.021248385
0003a0 9b ee 4a bd 18 5d 14 be f7 89 62 be 3e 72 5d bc
       -0.04954396 -0.14488637 -0.22122942 -0.013516007
0003b0 cc 08 98 be 8c bf 4f bf 12 46 57 bf ce 24 ee be
       -0.2969421 -0.8115165 -0.84091294 -0.46512455
0003c0 9a 43 f3 3d 69 53 90 3e 0a 7f 87 3e aa aa bb 3e
       0.11878128 0.28188637 0.2646411 0.36653644
0003d0 1b d6 8b 3e 02 4f 9a bd 6c 15 6d 3d 9f 28 91 3e
       0.27311787 -0.07534601 0.057881758 0.28351304
0003e0 16 35 49 3d 57 02 87 bd 32 f7 2c be 57 5a 05 be
       0.049122892 -0.06592243 -0.16891173 -0.13022743
0003f0 54 dc 1d be 93 b2 c5 3b c2 56 87 bd 36 10 ec bc
       -0.1541608 0.0060332506 -0.066083446 -0.028816324

conv2.0.bias f4 [16]
000000 39 52 04 be 11 3c d5 3e d7 d0 54 3e 0b 3b a2 be
       -0.1292199 0.4164739 0.20782791 -0.3168567
000010 7c 6b 7f 3e 3f 5e 89 3e 91 9e c4 bc b2 99 3d bc
       0.24943346 0.26829717 -0.024001392 -0.011572288
000020 d5 b6 b1 be ff df a0 3d 88 59 d5 3d aa 51 9f 3e
       -0.34709802 0.07855224 0.10417467 0.31116992
000030 3a f4 59 3e 24 5a 5c 3e 80 37 60 3e 80 f3 85 be
       0.21284571 0.21518761 0.21896172 -0.26162338

conv3.0.weight f4 [120, 16, 5, 5]
000000 e7 f3 ab 3c 10 ae 1d bc e4 e7 b5 3b 16 79 46 3e
       0.020990325 -0.009624019 0.005551325 0.19382128
000010 80 37 0a bd 08 a5 05 be 3f a4 c2 3d ef fb b0 3e
       -0.033744335 -0.13051236 0.09503984 0.3456721
000020 91 a5 19 bd 76 90 6d 3d 79 40 7f 3d 00 17 67 3e
       -0.037511412 0.057999097 0.062317345 0.22567368
000030 33 57 64 be 08 a8 d7 3c c0 19 a0 bd 3d c3 c9 3c
       -0.22298889 0.02632524 -0.078174114 0.02462923
000040 ec 64 d4 bd 82 dc a0 bd a2 3e ea bc 76 c0 cf bd
       -0.10370812 -0.078545585 -0.028594319 -0.10144131
000050 b8 a9 4b b7 7a 86 b2 bc 01 d7 a8 bd ff 4d 87 bd
       -1.2139259e-05 -0.021792639 -0.08244134 -0.066066734
000060 e4 6b 2c 3d 02 e4 a1 3c 6c 74 aa be 1b a3 3a be
       0.04209508 0.019762043 -0.33291948 -0.18226282
000070 29 c5 fd 3d 8b 2e 5c 3e de f1 7f be 2b a9 28 bf
       0.12391121 0.2150213 -0.24994609 -0.6588313
000080 75 8e 4e be 52 85 2b 3e 24 4a d6 3e fd 96 39 bc
       -0.2017153 0.16750076 0.4185344 -0.011327502
000090 02 a0 61 3d bb 94 9f 3d 52 da d5 3c 82 18 06 3d
       0.055084236 0.0779204 0.02610508 0.032738216
0000a0 9c 58 b3 bb fc aa 68 bd 97 50 91 ba f9 6c 39 bc
       -0.0054732095 -0.05680369 -0.001108664 -0.011317485
0000b0 b7 cb 22 be 48 f8 c9 bd 78 73 81 bc 3e 3c bb 3a
       -0.15898024 -0.09861809 -0.01580213 0.0014284921
0000c0 d3 1b 10 be 90 bb c4 bd f8 23 34 be d4 27 10 be
       -0.14073114 -0.09606087 -0.17591846 -0.14077693
0000d0 11 82 aa bd 12 57 6a bd fa fe c3 bd 01 0d 40 3d
       -0.083255894 -0.057211943 -0.09570117 0.0468874
0000e0 86 97 04 be c1 f5 13 be 12 79 0f be 58 76 3d bd
       -0.12948427 -0.14449216 -0.14011028 -0.04625544
0000f0 7c b7 06 3e db 33 00 3e 88 cf 4c 3d ea 24 05 bb
       0.13155931 0.12519781 0.050002605 -0.0020316192
000100 f8 71 ed 3c e0 68 50 3d 21 f5 aa 3c 1e 32 eb 3c
       0.028985009 0.050881267 0.02086884 0.028710421
000110 58 53 f3 3d 33 18 32 bc de 4b f9 bc a5 aa 1f bd
       0.11881131 -0.010870027 -0.030431684 -0.0389811
000120 be 34 f6 3d fc 1d 04 3e 30 ad f2 3c d3 35 1b 3e
       0.120217785 0.12902063 0.029623598 0.15157251
000130 21 dc 7a 3e 07 95 4c 3e ff 1d 25 3e 1a d8 72 bd
       0.24498035 0.19978724 0.16124724 -0.05928812
000140 c3 d1 ab 3d a0 5e 27 3e 5f 13 25 bc f4 e3 52 3e
       0.08389618 0.1634469 -0.010075419 0.2059477
000150 e5 78 a4 bd cd 02 f6 bd dd fa ef bd 16 f1 85 bd
       -0.08030871 -0.12012253 -0.1171777 -0.06540124
000160 b5 9d 1d bd 02 75 c9 3d 64 26 ea 3b b5 80 6c be
       -0.03848048 0.098367706 0.00714569 -0.23095973
000170 1a 79 2f bd 31 b2 93 bc b8 bc 89 3d df 2a 03 be
       -0.0428401 -0.018029304 0.06725448 -0.12809323
000180 7c 6b b1 bd 7c 4f ed 3d 70 93 d5 3c 1a a7 d4 3d
       -0.08663079 0.11587426 0.02607128 0.103834346
000190 dd b0 3b bd 71 0f 4a be 9f 99 b0 3d 78 10 fc 3d
       -0.045822967 -0.19732453 0.08623051 0.12307829
0001a0 dc fa 29 3e c0 db a2 be 12 af a2 be b1 a9 a9 bd
       0.16599602 -0.3180828 -0.31774193 -0.08284319
0001b0 07 7a dd bc 6c 6e f2 3d 51 27 d3 3d d5 2b 19 bd
       -0.027035726 0.118374676 0.103102334 -0.037395317
0001c0 75 52 20 bd d1 a7 fa 3b 3c e5 d2 3c cc 95 86 bc
       -0.039141137 0.0076494 0.025744073 -0.01642885
0001d0 5a 44 87 bd 50 eb 00 be 40 77 59 3d 2f 8f 0a be
       -0.06604834 -0.12589765 0.05309224 -0.13531183
0001e0 d1 42 e9 3d 12 f2 f6 bd 4b 5c e7 bd b4 2b c4 3b
       0.11389697 -0.1205789 -0.112969 0.005986655
0001f0 96 e6 3c bc 7d 87 5f bd 1e 45 e0 3c 5e 12 77 3e
       -0.011529585 -0.05457257 0.027376708 0.241281
000200 2d 04 c1 3d ed b6 a4 3c 0d 5f 70 3d c2 bf 51 bd
       0.094246246 0.020106757 0.058684397 -0.051208265
000210 27 28 3d 3e 7d c1 d5 3d 8c 3c 1b be 3c 2f e6 bd
       0.18472348 0.104372956 -0.15159816 -0.11239478
000220 95 c6 26 3e 06 28 3f 3e c4 3f a5 bd 58 5f cd bc
       0.1628669 0.18667611 -0.08068803 -0.025069878
000230 d3 eb 83 bd 8c 18 35 bc 76 d1 2f bc 17 27 18 bd
       -0.06441464 -0.011053216 -0.010731092 -0.037146654
000240 22 60 0f 3d 07 b4 0e bd c4 6d 13 bd 7d bc df 3b
       0.03500379 -0.034839656 -0.035993353 0.0068278895
000250 6c 3a f9 3c cc f9 9b 3c 9e a8 99 bc b1 ee 08 3e
       0.030423366 0.01904001 -0.01875716 0.13372304
000260 f9 40 04 be 96 c8 ba bd 07 f0 d6 3c 05 89 20 bd
       -0.1291541 -0.0912029 0.0262375 -0.039193172
000270 4f e8 52 3e 13 28 cf 3e be 14 06 3e 2e 0b c3 bc
       0.20596431 0.40460262 0.1309385 -0.023809042
000280 57 e5 89 bd 2c c4 cf 3d 69 39 4a be 36 ac 23 bd
       -0.06733196 0.10144839 -0.19748463 -0.039959155
000290 b4 bc 19 3d 40 a5 c6 bd 29 0d da bc 21 41 8f 3d
       0.037533477 -0.09699488 -0.026617603 0.06994844
0002a0 79 4a 50 3c ee 5c 9f 3c d7 3c 84 bd da b0 c0 bd
       0.012713068 0.019453492 -0.06456917 -0.09408732
0002b0 7d 25 c2 3d e4 7c 95 bd bb 1c 3b 3c 23 ec 1c 3b
       0.094798066 -0.072992116 0.011420424 0.002394446
0002c0 a8 aa 2a 3d 32 b4 f9 bd df 98 c6 bd c1 a2 ad 3d
       0.041666657 -0.12192573 -0.096971266 0.084783085
0002d0 12 d6 30 3e 3b 71 9b 3e 39 46 86 3e 12 33 eb bd
       0.17269161 0.30359825 0.2622545 -0.1148435
0002e0 3e f3 a4 3d 2b c2 d9 bc 58 6c 62 be fb d8 e0 bd
       0.08054207 -0.026581844 -0.22111642 -0.10978886
0002f0 e3 16 c2 3d 8e 01 1c bd 72 df 44 be 48 f3 94 bd
       0.094770215 -0.03808742 -0.19225863 -0.07272965
000300 b2 82 98 3d 9d 53 ae bd d9 14 80 3d e4 b9 c8 bd
       0.07446803 -0.08512042 0.062539764 -0.09801081
000310 7d 34 e8 bb 90 5d 32 3c 9c bf 0d bd 82 46 d2 3c
       -0.007086335 0.010886565 -0.03460656 0.025668386
000320 a2 c5 32 3d 80 88 7a 3e f2 c2 60 3e c4 64 61 be
       0.04364551 0.24466133 0.21949366 -0.22011095
000330 02 6e be bd 02 5e 65 bd c8 13 67 3d 60 9c fc 3d
       -0.09298326 -0.055997856 0.05641535 0.12334514
000340 22 dd a8 bd 3b b1 b5 bd a3 ae 55 be 14 63 b9 3d
       -0.08245303 -0.08871695 -0.208674 0.09052101
000350 c0 f9 8f 3d 55 a5 70 bd 6e 26 54 bd 0b 4f 9b bd
       0.07030058 -0.058751423 -0.051794462 -0.075834356
000360 a8 8d 1a bc a7 43 99 3c 0d e2 c2 bb c2 ae a4 3d
       -0.009433188 0.018709017 -0.0059473575 0.08041145
000370 cb b9 b6 bc fb 55 5d bd cb 55 1e 3e 15 5b ad 3d
       -0.02230539 -0.054037075 0.15462415 0.08464638
000380 72 aa 39 3d fc 94 08 3e 87 6d 27 3e f4 81 35 3e
       0.045328565 0.13338083 0.16350375 0.17725354
000390 f6 ab a5 3d 1a b3 0a 3d 4f 3a 95 bc 91 84 22 be
       0.080894396 0.03386221 -0.01821628 -0.15870883
0003a0 20 96 67 3d 98 6c 99 3e a2 95 a7 bb 63 a6 9f be
       0.056539655 0.29965663 -0.005114273 -0.3118163
0003b0 98 11 59 be 96 e3 02 bc ed 81 e0 bc f6 47 e4 3c
       -0.21198118 -0.007988831 -0.027405703 0.027866345
0003c0 cd e7 44 bd 89 aa 0a 3e 4f a4 c4 bc ec 22 11 3d
       -0.048072625 0.13541616 -0.02400413 0.035433695
0003d0 bf 51 9c 3d c4 43 4a 3d 86 a5 b0 3c dd 47 30 3d
       0.07632779 0.049381033 0.021563303 0.043037284
0003e0 3e 9c d6 bd d7 65 03 bd 22 73 2d 3d df 37 2e 3e
       -0.104790196 -0.032079544 0.042346127 0.170135
0003f0 5c 01 45 3e cd 38 76 be c9 48 83 be 23 1b 28 bd
       0.192388 -0.24045105 -0.25641468 -0.041041505

conv3.0.bias f4 [120]
000000 48 af 18 bd 25 34 03 be d8 08 31 be 04 0a 20 bd
       -0.037276536 -0.1281286 -0.1728853 -0.03907205
000010 69 49 eb bc 9a 29 83 bd 29 20 fa 3b f2 c1 81 bb
       -0.028721528 -0.06404419 0.0076332283 -0.0039598877
000020 b4 54 d7 3d 49 66 ba bd 22 b0 ed 3d a9 19 2d bc
       0.10514203 -0.091015406 0.1160586 -0.0105652
000030 10 be 0e 3e 2c 13 16 3e 24 b4 6a 3c 9a ed fe bb
       0.1393969 0.14655751 0.014325175 -0.007779789
000040 81 db 26 3e 31 e7 c0 3d ca b8 49 bd 2a 67 78 bd
       0.16294672 0.09419096 -0.049248494 -0.06064526
000050 69 50 be 3d 97 ec 3f bd fc ea cd 3d ce e3 bc 3c
       0.09292681 -0.04685649 0.10054585 0.023057844
000060 52 14 e5 3d e2 f8 c7 bc d9 c4 8f bc af f6 a2 be
       0.111855164 -0.024410669 -0.017549919 -0.3182883
000070 ef 4d aa 3d dd e5 e2 bc 6c 59 09 3e 43 70 aa bd
       0.08315646 -0.027697498 0.13413018 -0.083221935
000080 73 bb 01 3e e3 ba 70 be 37 dd 32 3e 73 8c 10 bd
       0.12669162 -0.23508792 0.174672 -0.035290193
000090 a7 bd 01 be 55 8b 63 3e 47 1a d7 bd 19 47 af bd
       -0.12670003 0.2222112 -0.10503059 -0.08558483
0000a0 81 c8 18 be 85 2f a6 3c b4 7b 05 3d ad 83 f7 bb
       -0.14920236 0.020286331 0.032588676 -0.007553539
0000b0 63 2f 06 3d 8a 93 ea 3d 2a 0a 90 bd a4 c4 df bd
       0.032760035 0.11453922 -0.07033189 -0.10926178
0000c0 98 6d fc 3a 27 77 05 3e 8d 41 be bc 29 86 7d bc
       0.0019258736 0.13033734 -0.023224616 -0.015473881
0000d0 bb 5c 92 bc cc fc cc 3d 9c bf 30 be ff fe fc bd
       -0.017866483 0.10009155 -0.17260593 -0.12353324
0000e0 af ed 43 3e 7b fc f8 3c 9e 3f 89 3d 57 52 5c 3e
       0.19133638 0.03039383 0.06701587 0.21515785
0000f0 0e a5 97 3d d4 4e 01 be 1c 53 2b 3e d1 db 35 be
       0.074045286 -0.12627727 0.16730922 -0.17759635
000100 95 ef bd 3d f3 b9 64 bc 8b 5d 36 be db 27 c1 3d
       0.09274212 -0.013960349 -0.17809121 0.0943143
000110 4f c3 91 bc a8 e4 47 3e bd b8 6d 3e d2 40 1e be
       -0.017793326 0.19520819 0.23215003 -0.15454414
000120 d7 c4 15 be f9 af 6c 3e 60 28 e7 bd ea 9a 90 bd
       -0.1462587 0.23114003 -0.11286998 -0.070607975
000130 e7 b9 d8 3d d7 7a 8b bd 72 e0 0c 3d 09 6e 1c 3e
       0.10582333 -0.06810539 0.034393735 0.1527635
000140 5d 97 01 be a1 ab f6 bd 62 b0 be 3d 2d 70 f1 bc
       -0.12655397 -0.12044454 0.09310986 -0.029472435
000150 ce 43 2a be ad a3 0f 3e e2 da 3e 3e 99 75 04 3d
       -0.16627428 0.14027281 0.18638185 0.032338712
000160 6e df 16 be ca 6e a5 bd ff 48 a8 bd c0 7c 56 bc
       -0.14733669 -0.08077772 -0.08217048 -0.013091266
000170 4e 79 c5 3c 0d 14 32 bd 43 6b 4e 3d c2 b0 52 3c
       0.024105694 -0.043476153 0.05039526 0.012859525
000180 15 ed 5b 3d fe 4d 32 3d 2f 3a c8 bd cf 17 b6 bc
       0.053692896 0.04353141 -0.09776723 -0.02222815
000190 80 05 47 3d 64 98 7d bb 01 21 08 3c 60 8e a9 3d
       0.04858923 -0.0038695568 0.00830865 0.08279109
0001a0 3c e1 6b 3d 10 8c 01 be 5e 21 35 3e 6e 59 7b 3b
       0.057587847 -0.12651086 0.1768851 0.0038352865
0001b0 f6 e2 13 be 62 f0 da bb d6 3c 38 3e be 75 19 bd
       -0.14442047 -0.006681488 0.17991957 -0.037465803
0001c0 a0 b8 03 3d 58 e6 12 be 26 b8 91 3e 4a 2b 9d 3c
       0.032158494 -0.14345682 0.28460807 0.01918568
0001d0 91 d3 88 3d dd a2 8b 3b eb ea 28 be 8b 53 51 3e
       0.06680978 0.004261358 -0.16495864 0.20442025

fc1.weight f4 [84, 120]
000000 b6 94 02 bc fe b6 16 3c 0e c5 49 be 45 74 86 bd
       -0.007970026 0.009198902 -0.19704077 -0.065651454
000010 5d 3c 8a be 02 5e 9e bb 7d fb e7 3d c2 ec cb 3c
       -0.2699918 -0.004832984 0.113272645 0.024893168
000020 45 25 97 be c8 46 2b bd 67 da a6 bc 82 4a 04 bd
       -0.29520622 -0.04181555 -0.020367814 -0.03229762
000030 c7 b5 be 3c c3 49 79 be db 20 84 3e d0 c0 67 3e
       0.023280038 -0.24344544 0.25806317 0.22632146
000040 a6 db 60 bd 56 69 76 bd b7 b3 43 3e 4d ce 2e 3e
       -0.054896973 -0.06015905 0.19111525 0.17070885
000050 ae c2 8c 3c 27 8b c2 3d 3b 2d ab 3d dd 31 a3 bd
       0.017182674 0.094991975 0.083582364 -0.07968495
000060 79 fd 44 be 54 1c ef bc 42 1e 2e be f4 c0 e9 3c
       -0.19237317 -0.029188313 -0.1700373 0.02853439
000070 fd 80 07 be 03 60 3a be 7f 22 80 be f4 aa 8f 3d
       -0.13232799 -0.18200688 -0.25026318 0.070150286
000080 57 9e 1e 3c 55 bd 20 bc 2d 26 4f be 29 a8 24 3e
       0.009681306 -0.009810765 -0.20229407 0.16079773
000090 28 56 4f 3e 64 c9 83 bd b4 d7 33 bc c5 a9 01 3e
       0.2024771 -0.064348966 -0.010976721 0.12662418
0000a0 b4 20 2f 3e 57 0b 27 3e bb 83 6a be 6c 06 64 bd
       0.17102319 0.1631292 -0.22901814 -0.055670187
0000b0 bd 14 5f be 16 f8 d5 3b 79 79 da 3d 78 18 c8 3d
       -0.21785255 0.0065298183 0.106677 0.09770292
0000c0 26 78 55 3e 0c d2 a8 bb 03 9f 29 be e0 63 4e be
       0.20846614 -0.0051519927 -0.16564564 -0.20155287
0000d0 1a 91 16 be d8 d5 38 be 7e 3f 02 3e 21 4c 7a bd
       -0.1470379 -0.18050325 0.12719533 -0.06110776
0000e0 d1 32 a7 3d 0c a4 de bb 5e 87 c2 bd 57 c6 12 be
       0.08163989 -0.0067944583 -0.094984755 -0.14333473
0000f0 73 bb 2a 3e fa 11 95 bc 20 7d 95 bb b9 b4 15 3c
       0.16673069 -0.018197048 -0.004562035 0.009137326
000100 aa 51 44 be 59 96 99 be 57 db 5b 3d 29 c2 01 3e
       -0.19171777 -0.2999752 0.053675976 0.12671722
000110 85 46 3e be 11 3f 64 3e 95 7f 90 be 47 ff ed 3c
       -0.18581589 0.22289683 -0.28222337 0.02905239
000120 32 d2 d1 3c 86 d4 d1 bd 05 c0 03 3e d9 76 24 bd
       0.025612924 -0.10245614 0.12866218 -0.040152404
000130 4d 1c 22 be bf 9c af 3e 73 bf c3 be 31 46 d5 bd
       -0.15831108 0.34299275 -0.38232002 -0.104137786
000140 e0 bb 20 be 88 36 19 3e 74 21 45 3e 65 3f 8c be
       -0.15696669 0.14962208 0.19251043 -0.27392116
000150 8a 93 0f 3e 28 8b e2 bd 66 6e 05 be 3c 5a 82 3a
       0.14021125 -0.11061698 -0.13030395 0.0009945105
000160 f0 41 7f 3e 04 78 f8 3d 59 de f8 3d f8 32 80 3e
       0.24927497 0.12132266 0.121517844 0.25038886
000170 a1 cf df bd 55 08 fe bd 1b f2 be 3b ce 8b a0 3c
       -0.10928274 -0.12403933 0.005827201 0.019597914
000180 fb 72 a2 be ee 61 74 bc 89 75 d0 3d 74 60 21 be
       -0.31728348 -0.014915926 0.10178668 -0.1575945
000190 bf 06 66 3e f8 e1 02 be aa a4 32 3b 61 12 a9 bc
       0.22463511 -0.12781513 0.0027258792 -0.020638647
0001a0 18 4e 7c 3d c4 bb 8a 3d 68 aa 86 be 12 db 99 bd
       0.061597914 0.06774095 -0.26301885 -0.075124875
0001b0 b4 5d 16 3e 74 00 dd 3d 24 00 d8 3d b5 53 4b bd
       0.14684182 0.10791102 0.10546902 -0.049640376
0001c0 2b 59 c0 bd 38 86 3a 3e 9e 85 49 be 01 d3 a8 be
       -0.093920074 0.18215263 -0.19679877 -0.32973483
0001d0 63 57 37 3e e2 f2 ea bd 65 6e 43 3d 2e 04 93 be
       0.17904429 -0.114721075 0.047712702 -0.28714126
0001e0 f6 79 5a bd c8 25 6a 3d ec 1c 14 3e d7 71 90 3d
       -0.053338967 0.057164937 0.14464158 0.07052963
0001f0 31 db cc bd c5 32 08 3d 52 12 bf 3c ae ca 78 be
       -0.10002745 0.033251543 0.023324165 -0.24296066
000200 77 6e b8 be cb db 83 3d d5 61 d5 bc 68 ef 01 bd
       -0.36021778 0.064384066 -0.026047627 -0.031722456
000210 4d 22 ee be 38 d5 e6 bd 40 c8 13 3e be a5 41 3d
       -0.46510544 -0.11271137 0.14431858 0.047277205
000220 9f 33 e5 bd 7a 70 b0 be 4c 0e de 3d 69 be cc bd
       -0.111914866 -0.34460813 0.10842571 -0.09997255
000230 e7 e7 05 3e 7e 24 aa bd 67 9e f5 bd 9b bd 6a bd
       0.13076745 -0.083077416 -0.119931035 -0.057309728
000240 1b 9e 57 3e e1 43 d0 3e 0a db 23 be 74 d9 de 3e
       0.21056406 0.40676787 -0.16001526 0.4352528
000250 5a 5f 47 be da 42 6e be cb 2f e0 bd 53 ad 11 be
       -0.19469967 -0.2326769 -0.10946616 -0.14226274
000260 ab d7 82 3d 17 68 75 3e 01 d1 38 3e 8c 39 88 3d
       0.06388792 0.23965488 0.18048479 0.06651601
000270 9d 77 01 3e 76 e4 5c be 97 d6 59 be 90 26 48 bd
       0.12643285 -0.21571526 -0.21273266 -0.0488649
000280 f0 49 21 3d 3f 3d b6 3d 4e a4 b2 3c 09 2b d4 3d
       0.039377153 0.088984005 0.021806862 0.10359771
000290 d3 0c 0a 3e 87 f0 8f 3c 59 cb 97 bd c4 75 ab 3a
       0.13481455 0.017570747 -0.07411832 0.0013081362
0002a0 0c b9 c9 3d 93 c5 53 be 73 15 d6 bd c3 d5 e2 be
       0.09849748 -0.20680837 -0.1045331 -0.44303712
0002b0 85 c2 0c 3d 29 27 d8 bd 7d 95 48 3e 4a ac 86 bd
       0.034365196 -0.10554344 0.19588275 -0.0657583
0002c0 1a 18 85 bd a7 64 2c bd 14 42 f9 3d b1 47 14 be
       -0.06498738 -0.042088177 0.121708065 -0.14480473
0002d0 45 dc 1e be e3 f2 7b bd 19 3a 07 be fc 54 0b 3e
       -0.15513714 -0.06151093 -0.13205756 0.13606638
0002e0 40 23 84 bb 6e 18 21 3e 63 fc 1a 3e 21 b1 a9 bd
       -0.0040325224 0.15731975 0.1513534 -0.08285738
0002f0 35 06 00 3e da 63 0d 3e 53 39 e6 bd eb ee 53 bd
       0.12502368 0.13807622 -0.112414025 -0.05174152
000300 4e a8 72 bc 62 20 85 3d 27 19 d6 bd e3 07 81 bc
       -0.014810635 0.06500317 -0.10454016 -0.015750831
000310 5b c8 57 3d 28 a2 08 3e b5 95 dc be 9b 09 1b be
       0.05268131 0.13343108 -0.43082967 -0.15140383
000320 83 06 b0 3d 3d cf b9 3c 96 3f 68 3e f6 84 6d 3d
       0.08594992 0.022681827 0.22680506 0.05798813
000330 20 d8 54 bd bc 0f cc bd 52 51 b9 3d f2 e0 17 3e
       -0.051963925 -0.099639386 0.09048714 0.14831904
000340 62 33 18 bd 58 2a d1 3e cc 38 78 3d d3 d2 d8 3d
       -0.037158377 0.40852618 0.06060104 0.105870865
000350 93 d1 c8 bd d5 f3 45 bd 7d cd de bc 6c 15 bf 3c
       -0.09805598 -0.04832824 -0.027197594 0.023325644
000360 55 a4 b0 bd 17 28 8c be eb 39 1d be e2 b0 11 3d
       -0.08625094 -0.27374336 -0.15354125 0.03556908
000370 a7 18 07 be 94 1f 2f 3d 01 4c 9e 3e 2e 03 70 3e
       -0.13192998 0.042754725 0.3091736 0.23438713
000380 fe ef 60 3d 78 4a 42 3e cd c7 d3 bd 57 a4 a2 3d
       0.054916374 0.1897372 -0.10340843 0.079415016
000390 c9 24 73 3e 13 e9 9a 3d b8 6e 13 bd 95 43 c5 3b
       0.23744501 0.07563987 -0.03599426 0.0060200193
0003a0 72 98 a1 3d 3a 37 cc 3e b0 1b b7 3c 40 af e3 3d
       0.07890405 0.39885885 0.02235207 0.11117411
0003b0 b5 c3 68 3d a0 62 b5 bd c0 b8 3a 3e 8b 98 8f be
       0.056827266 -0.08856702 0.18234539 -0.2804607
0003c0 07 97 c9 3d e7 56 7d bc 6f 1b aa bd 5f 2a 8f 3d
       0.09843259 -0.015462614 -0.08306014 0.069905035
0003d0 ba 86 3a 3d f0 5c 88 3d 0d e6 e8 3d 9a db 75 3d
       0.04553864 0.066583514 0.11372004 0.06002388
0003e0 ad 24 6c 3e f6 5b dd bd fd 52 4c 3c ca 34 a3 3e
       0.23060866 -0.10808556 0.012470958 0.31876212
0003f0 09 98 82 3e ca 08 00 3e 3e 99 51 bc 2c 45 3a 3e
       0.2550662 0.12503353 -0.012792883 0.1819045

fc1.bias f4 [84]
000000 30 ac 19 be c8 50 6a be c7 7c 1d 3d 51 87 90 3d
       -0.1500709 -0.22882378 0.038449075 0.070570596
000010 7d 19 5e bd 8e 7c b1 bd f8 75 17 3d 3a 12 1f 3d
       -0.054223526 -0.08666335 0.03697774 0.03883574
000020 85 74 59 be 62 0a cc 3d a9 dd 27 bc 26 62 2c bd
       -0.21235855 0.09962918 -0.010245719 -0.04208579
000030 8b 9c 4a be da 1b 2a be 62 3d d2 bd 79 39 93 3d
       -0.19786279 -0.16612187 -0.10265614 0.071886964
000040 0e d7 c0 3c 9f a3 c1 3c d8 50 38 3d 5a 6d e9 bd
       0.023540046 0.02363759 0.044998974 -0.1139781
000050 c2 df c5 bd 0d d8 93 bd f2 60 fd 3d 5b 47 0d be
       -0.09661819 -0.07218943 0.123720065 -0.13796751
000060 95 dd 57 3e c9 26 33 bd 5d 44 5c 3d af 13 8b 3c
       0.2108062 -0.04373816 0.053776134 0.01697716
000070 ad e3 ab 3c ce c0 ad bd 1f ca 11 3e e1 18 0f be
       0.020982588 -0.0848404 0.1423726 -0.13974334
000080 12 1c 51 bd 14 43 fc 3d 48 10 ea bd c4 76 a2 bd
       -0.05105216 0.12317482 -0.11428887 -0.07932809
000090 ab e0 19 3c 0a b0 19 3e 93 f3 39 be db 5b 0e 3e
       0.009391944 0.1500856 -0.18159322 0.13902228
0000a0 41 a7 45 3d a5 95 41 be 43 b2 c6 3d 66 5e 25 3e
       0.04825521 -0.18904741 0.097019695 0.16149291
0000b0 46 6c 22 be 69 2f 75 bd b7 a9 e0 3d 01 68 ef 3d
       -0.15861616 -0.059859667 0.109698705 0.11689759
0000c0 22 1d 31 be 52 82 05 3e c2 aa 81 3c 80 22 75 bd
       -0.1729627 0.13037995 0.015828494 -0.059847355
0000d0 08 c6 c1 3d c8 78 8e bc cd 3a 3d 3d 80 89 5f bd
       0.094615996 -0.017391577 0.046198655 -0.05457449
0000e0 a4 d3 4d 3c cb a6 4c 3d 3e 74 12 3e 86 44 52 bd
       0.012562666 0.049963754 0.14302155 -0.05133488
0000f0 01 89 07 bd ba 66 c8 bd e6 52 72 3d 63 20 11 be
       -0.03308964 -0.097852185 0.05916109 -0.14172511
000100 3c b6 6e 3d 9e 0d d9 bd 44 ce 5b 3d 77 15 6a bd
       0.05827926 -0.105983004 0.053663507 -0.057149377
000110 29 3d c1 3d 99 58 b2 bd 08 13 f2 3c ec 7e 4a 3d
       0.094354935 -0.08708305 0.02955009 0.04943745
000120 e1 94 a9 bd e4 35 84 be ea 34 57 3d b8 73 fc 3d
       -0.082803495 -0.25822365 0.052540697 0.12326759
000130 3d 5b df 3a 0e 16 bf bc f9 16 47 be c3 f3 94 3d
       0.0017040741 -0.023325946 -0.19442357 0.07273056
000140 86 10 31 3e 00 2d 9d 3d e6 55 66 bd 4e 52 82 bb
       0.1729146 0.07674599 -0.056234263 -0.0039770966

fc2.weight f4 [10, 84]
000000 18 7c ab bd b0 87 20 3d f9 16 d8 3e e1 09 f7 3d
       -0.083732784 0.0391919 0.42205027 0.12062431
000010 9f 63 d2 bd 94 31 42 bf 76 53 e5 3e 61 86 94 3e
       -0.102729075 -0.758569 0.44790238 0.29008773
000020 1a 88 ad 3c 78 1e 6e 3e f7 bb a6 3e d9 fa 1a bd
       0.021183062 0.2325381 0.3256528 -0.037836883
000030 b1 f1 59 be 18 15 ea 3e 3b 02 a2 bd 8e 0f a9 3e
       -0.21283604 0.45719218 -0.07910582 0.3301968
000040 46 c8 d6 be e1 7e 05 3f 0b c2 7e 3e 86 ad ce 3e
       -0.41949672 0.52146727 0.24878709 0.40366763
000050 2b ed 96 be e2 35 85 3e 43 95 27 be 57 16 26 be
       -0.2947782 0.26017672 -0.16365533 -0.1621946
000060 46 b5 7f 3e 88 ee a6 bd 4c fe b7 3e 7b 46 52 3c
       0.24971494 -0.08150965 0.359362 0.012834187
000070 2f e2 aa 3e c5 94 34 3e 0b 46 80 3e 6f c1 af be
       0.3337569 0.17634876 0.2505344 -0.34327266
000080 0e 56 dd 3d 46 f1 49 be ac eb d8 3c 11 ae c0 be
       0.10807429 -0.19720945 0.026479565 -0.37632802
000090 18 de 56 3e 1a 8c d5 3e 9f 49 ab be ee 72 18 bf
       0.2098316 0.41708452 -0.33454606 -0.5955037
0000a0 44 d7 ab 3e b3 53 11 3f 8b d0 0e bf 7c 22 07 3f
       0.33562672 0.5676834 -0.5578696 0.52786994
0000b0 11 ca d4 3d bf 69 0a bf 9e f6 e6 bd 79 26 10 3f
       0.103901036 -0.54067606 -0.11277507 0.56308705
0000c0 e6 b5 a7 3d f1 d6 bd 3e 14 09 df be 1f 75 cf 3c
       0.08188991 0.3707805 -0.43561614 0.025324402
0000d0 de 49 0e 3e c1 cd 5e 3f cd 56 03 bf 85 85 32 3f
       0.13895366 0.87032706 -0.5130432 0.69734985
0000e0 2f 6d 22 bf ee d1 e9 bd 1b 9e d7 be 51 05 1f 3e
       -0.6344785 -0.11416994 -0.42112812 0.15529372
0000f0 e7 be d2 3e 13 ae 66 bd d4 54 3b be 80 49 27 be
       0.41161272 -0.056318354 -0.18294078 -0.16336632
000100 36 7e 0a 3e 76 a8 0c be c4 9d 7f bd 06 2a e4 3e
       0.13524708 -0.13736138 -0.062406316 0.4456331
000110 8f bc 25 be c7 40 2c bd ff 4a 34 be b5 df 4a bd
       -0.1618521 -0.042053964 -0.17606734 -0.04952975
000120 01 df 03 3f 82 b3 ef be a7 e3 83 3d 28 33 3c 3e
       0.5151215 -0.4681664 0.064399056 0.1837889
000130 6e 55 a3 be f6 93 1f 3f 0f 85 da 3e 60 08 e7 3e
       -0.31901115 0.62335145 0.4267964 0.45123577
000140 72 dc 70 3e bb af 9f be 2b 04 ee 3e c0 ce 40 be
       0.23521593 -0.3118876 0.46487555 -0.18828869
000150 01 5f c3 3e df bd e1 bd 5c fc 18 be 72 21 84 be
       0.3815842 -0.11022543 -0.14940017 -0.25806767
000160 d9 f7 d0 3d e0 5c 23 bb f3 de cf be ce 8d a2 be
       0.10203523 -0.0024927184 -0.40599784 -0.31748813
000170 07 45 cd be c4 d2 00 bf ac 67 a3 be fe 9e 52 3e
       -0.40091726 -0.503216 -0.31915033 0.20568463
000180 42 32 03 bf 97 7c 03 bd f6 53 98 be 57 2e a4 be
       -0.5124856 -0.03210124 -0.29751557 -0.32066604
000190 14 54 01 3e 1c d7 27 be 22 33 c9 be 73 99 b4 bd
       0.1262973 -0.16390651 -0.39296824 -0.088183306
0001a0 4b 4d 10 bf 45 4d 1c bf c9 35 90 3e 0b 33 d7 be
       -0.5636794 -0.61055404 0.28166035 -0.4203113
0001b0 0c 2b 86 be a9 74 05 3f fa 6e e2 be 28 91 ff be
       -0.26204717 0.52131134 -0.44225293 -0.49915433
0001c0 a6 ec d8 be 2b 94 2d 3d 61 c5 2a 3e cf 74 df be
       -0.42368048 0.042377632 0.16676857 -0.43643805
0001d0 c5 a8 b1 be f3 71 b2 be ef 20 72 3f 32 e2 e5 be
       -0.34699073 -0.3485256 0.945815 -0.44899136
0001e0 23 87 b2 be 72 27 cc 3e f8 86 9a be ac 07 37 bd
       -0.34868726 0.39873844 -0.30181098 -0.04468505
0001f0 74 83 d8 be 28 97 97 be f5 c8 54 3e c6 9f 06 be
       -0.4228779 -0.2960751 0.20779784 -0.13146886
000200 24 75 d0 be 5a 7a 30 3e 44 fb 0f 3f f1 37 2f 3f
       -0.4071437 0.17234173 0.56242776 0.68444735
000210 6e 1b ca 3e 55 99 ee 3e 36 38 32 3f e8 20 b0 be
       0.39474052 0.46601358 0.6961702 -0.34400105
000220 8c 77 c4 bc d1 4a 88 3e c7 a6 8b 3e ab 96 23 be
       -0.023982786 0.2661958 0.2727568 -0.15975444
000230 95 e2 af 3e 1e 59 8d be 83 63 a6 bc 9e b7 8d 3e
       0.34352556 -0.27607054 -0.020311123 0.2767915
000240 09 2b 26 be 10 98 08 bf e2 b9 82 3e 4d c3 a0 3e
       -0.16227354 -0.5335703 0.25532442 0.31399003
000250 3f 2f 8d 3d 34 ee 92 3e c9 c6 80 3d 36 69 de bd
       0.06893777 0.2869736 0.06287915 -0.10859911
000260 1c 7d 69 3e bb ae e4 3d 0f df e9 3e 77 05 f7 3e
       0.22801632 0.1116614 0.45677993 0.48246357
000270 33 89 41 be 56 5c 06 bf c5 02 92 be d7 54 9e 3a
       -0.18899994 -0.52484643 -0.28517738 0.0012079728
000280 2e 19 b5 be d9 c8 a3 be 19 f9 b8 3e 45 5e a5 bc
       -0.35370773 -0.31989172 0.36127546 -0.020186553
000290 60 a4 03 bf b0 6d 6b bb 6f db 84 be 89 d7 14 bf
       -0.5142269 -0.0035923533 -0.25948665 -0.5814138
0002a0 4e f9 79 3e 30 83 f5 bd 7c dd 42 be d9 64 d9 3e
       0.24411508 -0.11987913 -0.19029802 0.42459753
0002b0 9d 79 d8 3e 62 86 fd bd de d7 90 3e 09 0f 1a be
       0.42280284 -0.12379147 0.28289694 -0.15044798
0002c0 f9 02 be 3e ac a0 f2 3e 39 70 c8 bd 10 4e de 3e
       0.37111643 0.47388208 -0.0978703 0.43418932
0002d0 c4 7e a5 be 95 cd 2f 3e 54 c4 22 3b f0 c6 40 be
       -0.32323277 0.17168267 0.002483626 -0.18825889
0002e0 a9 86 7d 3e d1 cf ff bd fe 3e 91 3e e9 e7 0c bf
       0.247584 -0.1249081 0.28368372 -0.55041367
0002f0 5e 4d 19 3c 56 c9 0f 3e 13 3d db 3e 2a a2 1e be
       0.009356825 0.14041647 0.42820033 -0.15491548
000300 8b 21 f8 3e dc c5 46 be 3f d7 50 be 68 c5 0d bf
       0.4846309 -0.19411415 -0.2039461 -0.55379343
000310 5c 86 81 3e 14 50 4e be 2a a3 e7 bc 40 84 26 be
       0.2529782 -0.20147735 -0.028276045 -0.16261387
000320 9e fa ce be 2f af 41 3f 27 db 04 bd 84 25 87 be
       -0.4042558 0.75657934 -0.032435562 -0.2639581
000330 01 da ce be 65 90 cc bd 5f 89 65 be 31 eb 03 3f
       -0.404007 -0.099884786 -0.22415684 0.5153075
000340 25 e4 ce 3c 23 e3 2a bf 71 7f 6a be 7c 7f 1e 3f
       0.025255272 -0.66752833 -0.22900178 0.61913276
000350 7b 92 ef 3e 9f b6 fe be 0c b2 e1 3d de c6 c5 3e
       0.46791443 -0.49748704 0.11020288 0.38628286
000360 2f 4e 0b 3d a2 34 d3 be 8b a8 ee bd a7 8d 78 3e
       0.03401011 -0.41251093 -0.11653241 0.24272786
000370 9b 7f ad be dd 29 38 bf b2 4f 50 3e 97 a3 68 be
       -0.33886418 -0.7193888 0.20342901 -0.22718655
000380 a5 fb 99 be b8 41 e3 3e 6b 82 32 3f 53 22 0c bf
       -0.30074802 0.44386077 0.6973025 -0.54739875
000390 d6 ff ed 3e 1d 2c cf be 06 e2 bb be 58 1b e2 be
       0.4648425 -0.40463343 -0.3669588 -0.44161487
0003a0 e2 7e 2d 3f f0 11 0d 3e 23 5a ca be 29 30 2b 3e
       0.6777173 0.13776374 -0.39521894 0.1671759
0003b0 37 51 ee be 15 0e d6 bc d7 3a ea 3d 68 be f1 3e
       -0.46546337 -0.026129762 0.11437004 0.4721558
0003c0 6f c1 10 bf d9 0f d8 be 5f 5d d6 3e 02 0f f2 3e
       -0.56545156 -0.4219959 0.41868111 0.47277075
0003d0 92 46 1d 3f f3 4b d4 3e 07 25 32 bf 47 4b 25 bf
       0.61435807 0.41464195 -0.6958775 -0.6456799
0003e0 b0 b6 b0 3d 73 7c ee bc 12 53 fc be ff 28 c6 3e
       0.08628595 -0.029112076 -0.49282128 0.38703153
0003f0 ad 50 ae be 10 86 ac bd 8d 50 94 3e 9c fa 8e 3e
       -0.34045926 -0.08424008 0.28967705 0.27925575

fc2.bias f4 [10]
000000 32 5d 23 be 24 89 4d 3c 2e 23 70 3e 13 31 87 3d
       -0.1595352 0.012544904 0.2345092 0.06601157
000010 2f 10 70 3d 4e 0b 1f 3e c2 86 a0 bc d9 7f 3e 3d
       0.058609184 0.15531656 -0.019595508 0.046508644
000020 6e c0 ad bd 1e aa 75 3d
       -0.08483969 0.05997669
