model_1.pth (torch, 250296 bytes, 10 tensors)

conv1.0.weight f4 [6, 1, 5, 5]
0	0x3bd81a0e	0.006594903
1	0x3e8be189	0.27320507
2	0xbdbab8da	-0.09117289
3	0x3dd35f7a	0.10320945
4	0xbd6f9345	-0.058490057
5	0x3e17861f	0.14797257
6	0x3e6bb977	0.23019968
7	0x3ee9d9c9	0.4567397
8	0x3ea68ea6	0.32530707
9	0x3db7dbec	0.08977494
10	0xbe669413	-0.22517423
11	0x3e9159d3	0.28388843
12	0x3f06a6c3	0.5259821
13	0x3f10ce98	0.5656524
14	0x3e7d0588	0.24709141
15	0xbe7875d0	-0.24263692
16	0x3ddf290a	0.108964995
17	0x3d7c1a47	0.061548498
18	0x3e234ac6	0.15946493
19	0x3e7e47a3	0.24832015
20	0xbec34bb2	-0.38143688
21	0xbe8215ae	-0.25407165
22	0xbe9d1c96	-0.30685872
23	0xbe0f7b06	-0.14011773
24	0xbc9af2ec	-0.018914662
25	0x3e8de7cc	0.2771591
26	0x3e98bd1d	0.29831782
27	0x3ebfb52f	0.3744292
28	0x3eb4130d	0.35170785
29	0x3ec9e11b	0.39429554
30	0x3ea5418a	0.32276565
31	0x3e14fd6b	0.14549796
32	0x3dbc2777	0.09187215
33	0x3e1aa96e	0.15103695
34	0x3ebf1d30	0.37326956
35	0xbd2f3015	-0.042770464
36	0xbe0bfd0a	-0.13670745
37	0xbe81a6fd	-0.25322714
38	0xbe7d4248	-0.24732316
39	0x3dacdd08	0.08440596
40	0xbe938985	-0.28815857
41	0xbecaff50	-0.39647913
42	0xbf0d8319	-0.55278164
43	0xbeafc028	-0.3432629
44	0xbebd4c98	-0.369725
45	0xbdec9ad3	-0.11552968
46	0xbe7faaa6	-0.24967441
47	0xbeec0907	-0.46100637
48	0xbed2e49d	-0.41190043
49	0xbd19498f	-0.037423667
50	0x3e8ffc26	0.28122061
51	0x3cabadef	0.020956961
52	0x3e0793bb	0.13239948
53	0x3e44eaab	0.19230144
54	0x3ea37b39	0.3192995
55	0xbdfc70e1	-0.123262174
56	0xbd53877b	-0.051642876
57	0xbe608bac	-0.2192828
58	0x3c5b330c	0.01337887
59	0x3e7ebe2b	0.24877231
60	0xbe7893d0	-0.24275136
61	0xbea7993c	-0.32734096
62	0xbee98bfc	-0.45614612
63	0xbd61cde4	-0.055127993
64	0x3c07d0cc	0.008289527
65	0xbe9808e9	-0.29694298
66	0xbe839662	-0.2570067
67	0xbd80bca4	-0.0628598
68	0xbe30264b	-0.17202108
69	0xbb2aebef	-0.0026080569
70	0x3e0d3437	0.1378945
71	0xbd434607	-0.047674205
72	0xbc52d0bd	-0.01286715
73	0x3e885943	0.266306
74	0xbcea6056	-0.02861039
75	0x3ea7b781	0.3275719
76	0x3e80a000	0.2512207
77	0x3ce85a24	0.028363295
78	0x3ed31d65	0.41233364
79	0x3f0106af	0.50400823
80	0xbdafe2e1	-0.085881956
81	0xbf017ce7	-0.5058121
82	0xbeda5a0b	-0.42646822
83	0x3e0df51c	0.13863033
84	0x3e061a75	0.1309603
85	0xbf1c3f8c	-0.61034465
86	0xbf514dd0	-0.8175936
87	0xbebd8388	-0.37014413
88	0x3d26fbc0	0.04076743
89	0x3e37200f	0.17883323
90	0xbecd8bdd	-0.4014577
91	0xbefb7818	-0.49115062
92	0xbe84dec0	-0.25951195
93	0x3dc9024a	0.0981489
94	0x3eb0196a	0.3439439
95	0x3e0db13c	0.13837141
96	0x3e6a7998	0.22897947
97	0x3e926e0d	0.28599587
98	0x3da1893a	0.07887502
99	0x3e610fe9	0.21978725
100	0x3d6cadd6	0.05778297
101	0x3dbf6cbd	0.09346912
102	0xbdb7adff	-0.08968734
103	0xbe4af544	-0.19820124
104	0xbd8d6605	-0.06904224
105	0xbe165bf0	-0.14683509
106	0xbe831a5a	-0.25606042
107	0xbe5febc8	-0.21867287
108	0xbe73f00c	-0.2382204
109	0xbe1510a6	-0.14557132
110	0xbe99c43b	-0.30032524
111	0xbeb59e24	-0.35472214
112	0xbef1307e	-0.4710731
113	0xbeaefde0	-0.34178066
114	0xbf15f121	-0.5857106
115	0xbe9dcd78	-0.30820823
116	0xbf0560f6	-0.52101076
117	0xbf22943b	-0.6350743
118	0xbef3b1aa	-0.47596484
119	0xbed67d85	-0.4189264
120	0xbdb645e2	-0.08900048
121	0xbe807d2e	-0.25095505
122	0xbef16208	-0.47145104
123	0xbe95463b	-0.29155144
124	0xbadfb842	-0.0017068463
125	0xbda95234	-0.08267632
126	0xbe90e942	-0.28302962
127	0xbe09a5eb	-0.13442199
128	0x3da7caf2	0.081930056
129	0x3ce49250	0.027901798
130	0xbe83f2af	-0.2577109
131	0xbefc97a5	-0.49334446
132	0xbf125a00	-0.5716858
133	0xbc430ff0	-0.011905655
134	0xbe5044de	-0.20338771
135	0xbe45433a	-0.19263926
136	0xbf04dcfc	-0.51899695
137	0xbe998bf0	-0.29989576
138	0xbe0ba2a6	-0.13636264
139	0x3d94703c	0.072479695
140	0x3e3659f4	0.17807752
141	0xbcd12480	-0.0255301
142	0x3cbb9656	0.022898834
143	0x3ec72118	0.38892436
144	0x3c925451	0.01786247
145	0x3e5f0ded	0.21782656
146	0x3e68c146	0.22729978
147	0x3f084186	0.5322498
148	0x3e9e534e	0.3092293
149	0x3eb8a477	0.36062977

conv1.0.bias f4 [6]
0	0xbdc4e1ff	-0.09613418
1	0x3c4f556d	0.012654644
2	0x3e190a13	0.1494525
3	0x3dca05e6	0.09864406
4	0x3df1f67f	0.118145935
5	0x3dcb06d1	0.099134095

conv2.0.weight f4 [16, 6, 5, 5]
0	0xbea71254	-0.3263117
1	0xbe102996	-0.14078364
2	0xbda916f2	-0.082563296
3	0xbdc5b748	-0.09654099
4	0x3da08cb2	0.078393355
5	0xbe3fe6a8	-0.18740332
6	0xbe19278b	-0.1495649
7	0xbd3edd32	-0.046597667
8	0xbb409286	-0.002938421
9	0x3e4b5983	0.19858365
10	0xbdf28582	-0.11841871
11	0x3b495160	0.003071867
12	0x3e17dff5	0.14831527
13	0x3db48c3c	0.0881581
14	0x3e0d496a	0.13797536
15	0x3ca816df	0.020518718
16	0x3d971554	0.07377115
17	0x3e19285a	0.14956799
18	0x3d8c1c17	0.06841295
19	0xbd97708b	-0.07394513
20	0x3e1965b7	0.14980207
21	0x3d1b321b	0.03788958
22	0x3c52c1ab	0.012863557
23	0xbd9296ad	-0.071576454
24	0xbde7214b	-0.11285647
25	0x3dd22418	0.102607906
26	0x3e240d89	0.16020788
27	0x3e4cc528	0.19997084
28	0x3d8bc51b	0.06824704
29	0xbea4ecbb	-0.3221186
30	0xbc87760a	-0.016535778
31	0x3dcddf11	0.10052312
32	0xbdc3b20f	-0.09555446
33	0xbef0d813	-0.47039852
34	0xbeee8baa	-0.4659093
35	0x3d5a20ce	0.05325394
36	0xbe9b18fa	-0.30292493
37	0xbf0a5f87	-0.54052013
38	0xbe7ec5ef	-0.24880193
39	0x3dc7054f	0.097178094
40	0xbe074985	-0.13211639
41	0xbda230f7	-0.079194956
42	0x3d856eb4	0.065152556
43	0x3e6ae188	0.22937596
44	0x3e4883fc	0.19581598
45	0x3dc4d8a1	0.09611631
46	0x3e864130	0.2622161
47	0x3ea92d20	0.3304224
48	0x3bf58b35	0.0074934014
49	0xbdec1b6f	-0.1152867
50	0x3e46434f	0.19361614
51	0x3e8231c0	0.2542858
52	0x3e28e9aa	0.16495386
53	0x3e29997c	0.16562456
54	0x3da7ef4c	0.08199939
55	0x3dab5d65	0.08367423
56	0x3dc38b12	0.0954801
57	0x3e23877f	0.15969656
58	0x3deefb75	0.11669055
59	0xbdb3bead	-0.08776603
60	0xbc160354	-0.009156067
61	0x3d6eb44c	0.058277413
62	0xbe20ad3a	-0.1569108
63	0xbe3fb7c6	-0.18722448
64	0xbe0ee7b3	-0.13955574
65	0xbdc91648	-0.09818703
66	0xbe0ef808	-0.13961804
67	0xbdfbaecc	-0.12289199
68	0xbd2b6908	-0.041848212
69	0x3e44c1e8	0.19214594
70	0xbe249411	-0.16072108
71	0x3cadba70	0.021207064
72	0x3d3bcbd9	0.0458487
73	0x3d7a06a5	0.061041493
74	0x3d7c8f19	0.061659906
75	0x3e91a6cc	0.28447568
76	0x3e4e9b4f	0.20176433
77	0x3e5c812a	0.21533647
78	0x3e2a1fe4	0.16613728
79	0x3e0a3f21	0.13500644
80	0xbe076312	-0.13221386
81	0x3d6f09fb	0.058359127
82	0x3ed7b851	0.4213281
83	0x3ee0c08c	0.43896902
84	0x3dee30b3	0.116303824
85	0x3dabe286	0.08392815
86	0x3eabc8aa	0.33551532
87	0x3d1f44bd	0.038883913
88	0xbe93d9b4	-0.28877032
89	0xbec28875	-0.37994733
90	0x3e46c81a	0.1941227
91	0xbd97c681	-0.074109085
92	0xbe9dfd1a	-0.30857164
93	0xbec2c857	-0.38043472
94	0x3dd7d4a1	0.105386026
95	0xbe10c714	-0.14138442
96	0xbe07b7fb	-0.13253777
97	0xbdec7b50	-0.115469575
98	0x3d922117	0.07135218
99	0x3e29046e	0.16505596
100	0x3e1bf673	0.15230732
101	0x3e06335f	0.13105534
102	0xbd09cd05	-0.033642787
103	0x3e19353f	0.14961718
104	0xbc40bbb4	-0.011763502
105	0x3d148890	0.03626305
106	0xbcdb48f1	-0.02676818
107	0x3c638b50	0.013888195
108	0xbdb5030f	-0.08838474
109	0xbe2df24f	-0.16986965
110	0xbd15ac14	-0.03654106
111	0xbddc6ebd	-0.10763309
112	0xbe242711	-0.16030528
113	0xbe474ba9	-0.19462456
114	0xbe0bd275	-0.13654502
115	0xbe1615df	-0.1465678
116	0xbda9daae	-0.08293663
117	0xbccd21fd	-0.025040621
118	0xbc132133	-0.008980083
119	0x3d43f712	0.047843046
120	0xbe293e04	-0.16527563
121	0xbdb268d6	-0.08711402
122	0x3da9d6ce	0.08292924
123	0x3e0fc1c8	0.14038765
124	0x3d77db0b	0.06051163
125	0x3e8ebeee	0.27880043
126	0x3e8ece75	0.2789189
127	0xbc0a41f6	-0.008438578
128	0x3dcf9d8a	0.1013747
129	0x3e6b73c3	0.22993378
130	0x3df08dea	0.11745818
131	0x3e5cf18c	0.21576518
132	0x3edc3cd4	0.43015158
133	0x3e844119	0.25830916
134	0x3df23716	0.11826913
135	0x3dc77beb	0.09740432
136	0x3edc3add	0.4301366
137	0x3e65fd5f	0.22459935
138	0xbd84e320	-0.06488633
139	0xbebc6c23	-0.36801252
140	0x3e3584fa	0.17726508
141	0xbd0afa4d	-0.03393011
142	0xbe589aba	-0.21152773
143	0xbee98577	-0.45609638
144	0xbdc8f8a6	-0.09813051
145	0xbd981077	-0.074250154
146	0xbe1745c8	-0.14772713
147	0xbe15026d	-0.14551707
148	0x3da90bb3	0.082541846
149	0x3e87f7ce	0.26556247
150	0xbdd682ff	-0.10474204
151	0xbdc09b73	-0.094046496
152	0xbe1de5b4	-0.15419656
153	0xbe0028fa	-0.12515631
154	0xbd1eab78	-0.038737744
155	0x3dc5d205	0.09659199
156	0xbd0c4bad	-0.034251858
157	0x3db3b980	0.08775616
158	0x3cf23eb3	0.029570913
159	0x3e351cb8	0.17686737
160	0x3dc67a42	0.096912876
161	0x3e864afb	0.2622908
162	0x3e98575b	0.29754147
163	0x3e2ca510	0.16859841
164	0x3e70cba0	0.23515177
165	0x3e3da759	0.1852087
166	0x3d2f268b	0.042761367
167	0xbc71030f	-0.014710202
168	0x3deb9075	0.11502162
169	0x3d3ef9e2	0.046625026
170	0xbccd2270	-0.025040835
171	0xbdba1f9d	-0.09088061
172	0x3b1a9751	0.0023588727
173	0xbc4016ef	-0.011724218
174	0xbba6eb5f	-0.0050939764
175	0x3d490940	0.049081087
176	0x3c70d203	0.014698508
177	0x3e3964f8	0.18104923
178	0xbc7110f5	-0.0147135155
179	0xbde1c2f0	-0.110235095
180	0xbe492a2a	-0.1964499
181	0xbebe84df	-0.37210748
182	0xbf27900c	-0.65454173
183	0xbef34c22	-0.47519022
184	0xbf0a6a3a	-0.5406834
185	0x3de081b4	0.10962239
186	0x3cfc796f	0.030819623
187	0xbdcc3b5a	-0.09972258
188	0xbc5a9724	-0.013341699
189	0xbd1f773f	-0.03893208
190	0x3de0b9c3	0.10972931
191	0x3ec22789	0.37920788
192	0x3ec6390f	0.38715407
193	0x3eb5af8e	0.354855
194	0x3e2ff579	0.17183484
195	0xbe660498	-0.2246269
196	0xbe2de7aa	-0.16982904
197	0xbe47ced1	-0.19512488
198	0xbe7d4aeb	-0.2473561
199	0xbe650f90	-0.22369218
200	0xbd5fc9cf	-0.05463582
201	0x3c2af07d	0.010433313
202	0x3dccc03c	0.09997603
203	0x3dd67285	0.104710616
204	0x3e504e6e	0.20342419
205	0xbdc12ff7	-0.09432977
206	0xbd816c35	-0.06319467
207	0xbd4e917b	-0.05043171
208	0xbe5e7027	-0.2172247
209	0xbe033e37	-0.12816702
210	0xbddb89da	-0.107196525
211	0xbd8913ae	-0.06693207
212	0xbe9231ed	-0.28553715
213	0xbea0e78c	-0.31426656
214	0xbe42ac32	-0.19011
215	0x3cdb9f57	0.026809378
216	0x3e7db457	0.24775825
217	0x3ea272ac	0.31728113
218	0x3e994746	0.2993719
219	0x3e304bbd	0.17216392
220	0xbe09be77	-0.13451563
221	0xbd2d577a	-0.042319752
222	0x3df237c5	0.118270434
223	0x3d2f325b	0.042772632
224	0xbd9e30d7	-0.07724159
225	0xbddc0035	-0.10742227
226	0xbcabc909	-0.020969884
227	0x3e0f04c7	0.13966666
228	0x3ddc3290	0.107518315
229	0x3e430115	0.19043382
230	0xbe108350	-0.14112592
231	0x3a02d831	0.00049913215
232	0xbca926e8	-0.020648435
233	0xbdb0456c	-0.08606991
234	0xbdfb48fc	-0.1226978
235	0xbd864520	-0.06556153
236	0xbe1a6b33	-0.15079956
237	0xbed22cee	-0.41049904
238	0xbf02b65f	-0.51059526
239	0xbe9a97d7	-0.3019397
240	0x3df7b760	0.12095523
241	0x3ea62513	0.3245016
242	0x3ea378c3	0.3192807
243	0x3e9ac654	0.30229437
244	0x3eb996be	0.3624782
245	0xbde97da3	-0.114009164
246	0x3cfb1184	0.030648
247	0x3da255ef	0.07926547
248	0x3e367e85	0.17821701
249	0x3dc9dad9	0.09856195
250	0xbd260646	-0.040533327
251	0x3dc0a618	0.0940668
252	0xbcedf190	-0.02904585
253	0x3de57d7c	0.11205575
254	0xbc166d77	-0.009181372
255	0xbd3e36cb	-0.046438973

conv2.0.bias f4 [16]
0	0x3ba73c2d	0.005103609
1	0x3d821863	0.06352308
2	0x3daa97b2	0.08329715
3	0xbe5873e2	-0.21137956
4	0x3bb57419	0.0055375216
5	0xbce2d599	-0.027689742
6	0xbd9402a8	-0.07227069
7	0x3d968d4e	0.073511705
8	0x3a1a018e	0.00058748655
9	0x3bff60f6	0.007793541
10	0x3db15ca3	0.08660247
11	0x3ddba313	0.10724463
12	0xbc15f794	-0.0091532655
13	0x3da870dd	0.08224652
14	0xbdbd5f45	-0.09246687
15	0xbdf0cffd	-0.117584206

conv3.0.weight f4 [120, 16, 5, 5]
0	0xbd5e7ec4	-0.054320112
1	0xbde670dc	-0.11251995
2	0xbd0b4aed	-0.034007
3	0x3d5b221f	0.053499337
4	0x3dcab41d	0.09897635
5	0xbe345bca	-0.1761314
6	0xbd505cf7	-0.05086991
7	0x3e355af5	0.17710479
8	0xbce0034b	-0.02734532
9	0x3ca3fe3a	0.020018686
10	0xbcdb1459	-0.026743101
11	0x3dc57db6	0.09643118
12	0xbe295e7d	-0.1653995
13	0x3d8e2b42	0.069418445
14	0xbd9e8901	-0.07740975
15	0x3d316de7	0.0433177
16	0xbe5b38ae	-0.2140834
17	0xbced99c8	-0.029003993
18	0xbd808957	-0.062761955
19	0xbe380fbc	-0.17974752
20	0xbd9033c7	-0.07041126
21	0xbd8d3695	-0.06895176
22	0xbc269364	-0.010166977
23	0xbda4d8a2	-0.08049132
24	0x3d8a4c1b	0.06752797
25	0xbdad0c9d	-0.084496714
26	0xbe23881d	-0.15969892
27	0xbd9217be	-0.07133435
28	0x3d9c35d4	0.076274544
29	0x3dcf53c5	0.101234
30	0xbe5ec848	-0.21756089
31	0xbeec4ef9	-0.46154
32	0xbe773576	-0.24141487
33	0x3d8ca6d1	0.06867755
34	0x3ec00b7b	0.3750876
35	0xbce0550b	-0.027384302
36	0x3de0ff4e	0.109861955
37	0x3d6fb104	0.058518425
38	0xbba43650	-0.0050113574
39	0x3dd414a7	0.103555016
40	0x3d28fac9	0.041254792
41	0xbde8afb5	-0.113616385
42	0xbd996f42	-0.07491924
43	0x3ca7acfb	0.020468226
44	0xbdb594b6	-0.08866255
45	0xbc3ff303	-0.011715653
46	0x3d07fb5d	0.033198703
47	0xbc5cbba9	-0.013472476
48	0xbe428f0e	-0.18999884
49	0xbe0baf39	-0.13641061
50	0xbe6258b0	-0.22104144
51	0xbd16b758	-0.036795944
52	0xbe4f4f08	-0.20244992
53	0xbe14bd29	-0.14525284
54	0xbd1811a4	-0.0371262
55	0xbd190f3a	-0.037368037
56	0xbd95e312	-0.07318701
57	0xbc37b593	-0.011212724
58	0xbe5fb6e7	-0.21847115
59	0xbe5928ae	-0.21206924
60	0x3d97d4fe	0.07413672
61	0xbc23ef7f	-0.010005831
62	0x3d5d4899	0.054024313
63	0x3c8c94a0	0.017160714
64	0xbd5ca4b2	-0.053868003
65	0x3db46dda	0.08810015
66	0x3e1a92b3	0.15095024
67	0x3ca156f9	0.019694792
68	0x3e46bc69	0.1940781
69	0xbd0596f3	-0.03261466
70	0xbdf18ffc	-0.11795041
71	0x3aaa930f	0.0013013798
72	0x3db06e64	0.08614805
73	0x3e1fd712	0.15609387
74	0x3d9aec23	0.07564571
75	0x3e34759a	0.17622986
76	0x3e280e6b	0.1641175
77	0x3eadfd41	0.3398228
78	0x3e1cd92c	0.1531722
79	0xbd905cfe	-0.07048987
80	0x3e1ad699	0.15120925
81	0x3e06e9cd	0.13175125
82	0x3bd9dabf	0.006648391
83	0x3e3332ac	0.17499799
84	0xbce06b78	-0.027394995
85	0xbd7af4fd	-0.061268795
86	0xbdd73283	-0.10507681
87	0xbda4bc0e	-0.08043681
88	0xbd52d78b	-0.05147509
89	0x3ddd4067	0.108032994
90	0xbd950961	-0.072771795
91	0xbe05348b	-0.13008325
92	0xbd86a0b6	-0.06573622
93	0xbdc4e9d5	-0.096149124
94	0x3e0cb103	0.137394
95	0xbdc5ed2b	-0.09664377
96	0xbddaaa97	-0.10677069
97	0x3e02a48c	0.12758082
98	0x3d938381	0.07202817
99	0x3e40170f	0.18758796
100	0xbdb39806	-0.087692305
101	0xbe8f1789	-0.27947643
102	0xbd57bd9e	-0.052671067
103	0x3e08531a	0.1331295
104	0x3e845f78	0.25854087
105	0xbe18aa90	-0.14908814
106	0xbe43ab17	-0.19108234
107	0xbda8b795	-0.082381405
108	0x3c3dc755	0.011583169
109	0x3e0c27b3	0.13687019
110	0xbd5a363e	-0.053274386
111	0xbd961459	-0.073281
112	0xbd873437	-0.06601756
113	0xbca584dd	-0.020204956
114	0x3dc26332	0.09491576
115	0xbc1a6b8b	-0.009425054
116	0xbddac1e1	-0.10681511
117	0xbde22ffd	-0.11044309
118	0xbc018671	-0.0079055885
119	0xbe3f8126	-0.1870161
120	0x3e23487d	0.15945621
121	0xbd57d722	-0.0526954
122	0xbd616a77	-0.055033173
123	0x3ced9171	0.029000016
124	0x3d80e090	0.06292832
125	0xbd030f9d	-0.03199731
126	0x3e1382ab	0.14405315
127	0x3e205bcc	0.15660018
128	0x3d774ab7	0.060373988
129	0x3e77605e	0.24157855
130	0x3d9c7bd0	0.07640803
131	0x3cae5e00	0.021285057
132	0x3dd9ef64	0.10641363
133	0x3d90a1d9	0.0706212
134	0x3da4401e	0.08020042
135	0x3bdf5c92	0.006816455
136	0x3e01a80e	0.12661764
137	0x3d8e34d2	0.069436684
138	0xbd85ad99	-0.06527252
139	0x3add4828	0.0016882466
140	0x3a07b36e	0.00051765784
141	0x3ddbe8be	0.107377514
142	0xbc71916e	-0.014744146
143	0xbd56634a	-0.052340783
144	0xbd11a507	-0.035557773
145	0x3d4bcab3	0.049753856
146	0x3da9fa2b	0.08299669
147	0xbd110d1a	-0.035412885
148	0x3d1990ab	0.03749148
149	0x3db6eb1c	0.08931562
150	0xbd6e1978	-0.058129758
151	0x3e0d332e	0.13789055
152	0x3b868a28	0.004105825
153	0x3dc4674f	0.09590017
154	0xbd182af9	-0.037150357
155	0xbd34e2c1	-0.044161562
156	0x3c119657	0.0088859415
157	0x3e551bbb	0.2081136
158	0x3dc8d15e	0.098055586
159	0xbd6c608d	-0.057709266
160	0xbdbd7a60	-0.09251857
161	0x3db5a086	0.08868508
162	0xbe1f9900	-0.15585709
163	0x3da5fed1	0.08105243
164	0x3d78e411	0.060764376
165	0xbdf8c176	-0.12146275
166	0xbd841792	-0.06449808
167	0xbc0939a2	-0.008375557
168	0xbb8f9be0	-0.0043825954
169	0x3d9340d3	0.071900986
170	0xbd045455	-0.032306988
171	0xbd87c524	-0.066293985
172	0x3d71ae0d	0.05900388
173	0xbe131127	-0.14362012
174	0x3dbc09bc	0.09181544
175	0xbc22093f	-0.0098899
176	0xbcf7436c	-0.030183516
177	0xbd8d2d09	-0.068933554
178	0xbd80d85f	-0.062912695
179	0xbd264633	-0.04059429
180	0x3dd78f14	0.10525337
181	0x3d7c2214	0.061555937
182	0x3cd61355	0.026132265
183	0xbdd84464	-0.105599195
184	0x3daae3f3	0.08344259
185	0xbdbaf0a8	-0.09127933
186	0xbe2389a8	-0.1597048
187	0xbe1414b5	-0.14461024
188	0x3e015200	0.12628937
189	0x3d17bbc2	0.037044294
190	0xbe6767c6	-0.2259818
191	0xbe12ff98	-0.14355314
192	0x3d889841	0.06669665
193	0xbe3fc2fa	-0.18726721
194	0x3e1bcb55	0.15214284
195	0xbd0ce46a	-0.03439752
196	0xbd636090	-0.05551201
197	0xbabc144a	-0.0014349308
198	0xbc9c00f4	-0.019043423
199	0x3d2093aa	0.039203323
200	0x3dcbb219	0.09946079
201	0x3e85ac94	0.2610823
202	0x3e6f921a	0.23395577
203	0x3cd43cee	0.02590796
204	0xbdae53bb	-0.08512064
205	0x3cbfb410	0.02340129
206	0xbc9cc764	-0.019138046
207	0x3d6b125d	0.05739056
208	0x3d2aea9d	0.04172765
209	0xbe3876aa	-0.18014017
210	0xbe048eda	-0.12945119
211	0x3dcc0b9f	0.09963154
212	0x3c7a3488	0.0152713135
213	0xbda40a31	-0.08009756
214	0xbde27773	-0.110579394
215	0xbe19958c	-0.14998454
216	0xbddb2f7b	-0.107024156
217	0x3d054c6c	0.032543585
218	0xbd000438	-0.031254023
219	0x3cd95a7d	0.026532406
220	0x3c7e91f0	0.015537724
221	0xbd253b4c	-0.040339753
222	0x3d7d861c	0.061895475
223	0x3d0513c1	0.032489542
224	0x3c7fa065	0.015602206
225	0x3e3bbcea	0.18333784
226	0x3e2323bb	0.15931599
227	0x3df01395	0.11722485
228	0x3d31ac3d	0.04337715
229	0x3d76ff6a	0.060302176
230	0x3cb1077a	0.02161001
231	0xbd52d8e9	-0.051476393
232	0x3de5ac13	0.11214461
233	0x3e1a212e	0.1505172
234	0x3e042f7c	0.12908739
235	0xbe230e3d	-0.159234
236	0xbce237ff	-0.027614592
237	0x3d82b40f	0.06382
238	0x3b27e15a	0.0025616498
239	0x3cdafe13	0.02673248
240	0xbdf5c593	-0.12000575
241	0x3dd5a095	0.10431019
242	0x3cdbc5ef	0.02682778
243	0x3cdfc5d3	0.02731601
244	0x3d46cffd	0.048538197
245	0x3d7f799e	0.062371843
246	0x3ce94ace	0.028478052
247	0xbd011bd0	-0.031520665
248	0xbe22d0e5	-0.159
249	0xbd911c21	-0.07085443
250	0x3e398cff	0.18120192
251	0x3e3c6e7d	0.18401523
252	0x3e7c6922	0.2464948
253	0x3db22ae6	0.086995885
254	0xbdf4b394	-0.11948314
255	0x3c6b3563	0.01435599

conv3.0.bias f4 [120]
0	0xbd99ed3f	-0.07515954
1	0xbd8fa770	-0.07014358
2	0xbdab54c0	-0.08365774
3	0xbbdeef06	-0.006803396
4	0xbca2ce56	-0.01987378
5	0xbb71da30	-0.0036903732
6	0xbbae3f09	-0.005317573
7	0x3cc218e3	0.023693508
8	0x3dd42f63	0.10360601
9	0xbdbcae33	-0.09212913
10	0x3d3fd529	0.046834145
11	0x3c986fdb	0.018608024
12	0x3de262ac	0.110539764
13	0x3d80b4c1	0.06284476
14	0x3b532431	0.0032217617
15	0xbd5d4b03	-0.054026615
16	0x3dd5aec1	0.10433722
17	0x3df10458	0.11768407
18	0xbdec7d60	-0.11547351
19	0xbd8d5e52	-0.06902756
20	0x3bf59092	0.0074940408
21	0xbd847f5f	-0.064696066
22	0x3dce5429	0.10074646
23	0x3d477b68	0.048701674
24	0xbcbd4828	-0.023105696
25	0x3d12a7c1	0.035804514
26	0x3d794a91	0.060862128
27	0xbe437ed0	-0.19091344
28	0x3df01106	0.11721997
29	0x3d03735c	0.032092437
30	0x3dbda14b	0.0925928
31	0xbcd417b0	-0.025890201
32	0x3defee9e	0.117154345
33	0xbe49094c	-0.19632453
34	0x3e21224a	0.15735736
35	0xbcc96026	-0.02458198
36	0xbe1ba890	-0.1520102
37	0x3e076e2f	0.13225625
38	0xbd9f63e6	-0.07782726
39	0xbaebe297	-0.0017996606
40	0xbbb61fa3	-0.0055579706
41	0xbbddd02b	-0.0067692003
42	0xbd163a36	-0.036676608
43	0xbd075e5b	-0.03304897
44	0x3b1d9a3a	0.0024048225
45	0x3df29e3f	0.11846589
46	0xbd94bad0	-0.07262194
47	0x3c4a0ccf	0.012332155
48	0xbddb54d2	-0.107095376
49	0x3dad1408	0.08451086
50	0x3d995a03	0.074878715
51	0x3d57d011	0.052688662
52	0x3d0011bf	0.031266924
53	0x3dbbe796	0.09175031
54	0xbdf786e6	-0.12086277
55	0xbd364af2	-0.044505067
56	0x3de47731	0.111555465
57	0x3cb52418	0.022111937
58	0x3d01024b	0.031496327
59	0x3e289d0b	0.16466157
60	0x3d30c83c	0.04315971
61	0xbd7d57ab	-0.061851185
62	0x3c18750b	0.009305249
63	0xbdf9f2f2	-0.12204541
64	0x3d13a53e	0.03604626
65	0xbd881332	-0.06644286
66	0xbe41b39c	-0.18916172
67	0x3d906c93	0.07051959
68	0x3d2fb2d6	0.04289516
69	0x3da12820	0.07868981
70	0x3d4c2e45	0.049848814
71	0xbd8615fb	-0.06547161
72	0xbd9ef888	-0.07762247
73	0x3dab4a2b	0.08363756
74	0xbb925d39	-0.0044666794
75	0xbc755295	-0.014973302
76	0x3d17a010	0.037017882
77	0xbb8469ca	-0.0040409314
78	0x3d5d07a7	0.053962376
79	0x3db26f04	0.08712581
80	0xbacfc2ad	-0.0015850865
81	0xbd800fb5	-0.06252996
82	0xbbdcce71	-0.006738477
83	0x3af4ed07	0.0018686362
84	0xbddc4a92	-0.10756411
85	0x3d217ae6	0.039423846
86	0x3e1f3629	0.15548004
87	0xbd713f9f	-0.058898564
88	0xbd5ad57d	-0.053426255
89	0xbe050429	-0.12989868
90	0xbd97cc22	-0.07411982
91	0xbd88f562	-0.06687428
92	0x3cd1e724	0.025622912
93	0x3d59d14b	0.053178113
94	0x3ad9c631	0.0016614852
95	0xbbb787f2	-0.0056009227
96	0x3d428014	0.047485426
97	0x3d91806f	0.07104575
98	0x3c8faf69	0.017539697
99	0x3a145db4	0.0005659715
100	0x3d4b1df9	0.04958913
101	0x3d8a02df	0.06738829
102	0xbd24bb32	-0.040217586
103	0x3d6d8e61	0.05799711
104	0xbbb0f536	-0.005400325
105	0xbdba955c	-0.09110519
106	0x3da2aa69	0.079426594
107	0xbdac3883	-0.08409216
108	0xbdc8b4df	-0.098001234
109	0x3c434d63	0.011920306
110	0x3cc19427	0.023630215
111	0x3c179566	0.009251928
112	0x3c840813	0.016117131
113	0xbdfbf45a	-0.12302466
114	0x3de80bc6	0.113303706
115	0x3b07522c	0.0020648343
116	0x3c884ac1	0.016637208
117	0xba88241c	-0.0010386738
118	0xbdf14c7c	-0.11782166
119	0x3dbd0ded	0.09231172

fc1.weight f4 [84, 120]
0	0x3b68fd0b	0.0035551216
1	0x3de30b29	0.11086113
2	0xbc3f2953	-0.011667567
3	0xbdcb073f	-0.099134915
4	0xbd92ad4d	-0.07161961
5	0xbc09ffa8	-0.00842277
6	0x3da7cd63	0.08193471
7	0xbb9e1431	-0.0048241843
8	0xbe896097	-0.26831505
9	0x3d84ca39	0.064838834
10	0xbb56b8ec	-0.003276403
11	0xbd82d324	-0.06387928
12	0x3c8237d8	0.015895769
13	0xbe1ce2ff	-0.15320967
14	0x3deb0e18	0.114772975
15	0x3e610977	0.21976267
16	0xbd618a93	-0.055063795
17	0x3da3330b	0.0796872
18	0x3e0a8fed	0.13531466
19	0x3e25a10d	0.16174717
20	0xbd354a7f	-0.044260498
21	0xbc0423f2	-0.008065211
22	0xba8b7faf	-0.0010642911
23	0xbe195220	-0.14972734
24	0xbdf9811a	-0.12182827
25	0xbd68d7ae	-0.056846313
26	0xbe73d396	-0.23811182
27	0x3daf4558	0.08558148
28	0x3c92d958	0.017925903
29	0xbe18cb12	-0.14921215
30	0xbe46c7c2	-0.19412139
31	0x3daae363	0.08344152
32	0xbd7858ac	-0.06063144
33	0xbba2e809	-0.0049715084
34	0xbe755af0	-0.23960471
35	0x3e3d6f07	0.18499385
36	0x3e2bf580	0.1679287
37	0xbc9f2443	-0.01942647
38	0xbcb525c4	-0.022112735
39	0x3da0bc51	0.078484185
40	0x3d57432b	0.05255429
41	0x3dedc2a4	0.116093904
42	0xbe0d9eaf	-0.13830064
43	0xbd860153	-0.06543221
44	0xbe07d517	-0.13264881
45	0x3e444368	0.19166338
46	0x3d005181	0.03132773
47	0x3db2afbc	0.08724925
48	0x3e84083c	0.25787532
49	0x3c8dccbb	0.017309537
50	0xbe209ede	-0.15685603
51	0xbe1a12af	-0.1504619
52	0xbe422757	-0.1896032
53	0xbdf75e5a	-0.12078543
54	0x3dbf8044	0.093506366
55	0x3d88282d	0.06648288
56	0xbd3379d2	-0.04381735
57	0xbda5562c	-0.080730766
58	0xbdb20a67	-0.0869339
59	0xbdf27978	-0.118395746
60	0x3e2dd01f	0.16973923
61	0x3c41dcf6	0.011832466
62	0x3d1e66a6	0.038672112
63	0xbd9f28e4	-0.07771471
64	0xbe021cb9	-0.1270627
65	0xbe4dc96f	-0.20096372
66	0x3c7bf79d	0.01537886
67	0x3e1f4d18	0.15556753
68	0xbe60f67e	-0.2196903
69	0x3d28178b	0.041038077
70	0xbe80816f	-0.2509875
71	0xbb4df1a5	-0.003142455
72	0x3de4a594	0.11164394
73	0xbda039cd	-0.078235246
74	0x3dbbe897	0.09175222
75	0x3ca47b81	0.020078423
76	0xbe252dd4	-0.16130763
77	0x3e32396a	0.17404714
78	0xbe36326e	-0.17792675
79	0xbc05c83a	-0.0081654135
80	0xbe3c37aa	-0.18380609
81	0x3d9e846a	0.077401
82	0x3d843160	0.0645473
83	0xbe6abbab	-0.22923152
84	0x3c50e0ad	0.012748879
85	0xbdb2bfbe	-0.08727978
86	0xbd8264af	-0.0636686
87	0xbc049970	-0.008093223
88	0x3e894402	0.26809698
89	0x3da95569	0.08268244
90	0x3d67edf9	0.056623433
91	0x3e2b99b9	0.1675786
92	0xbe223eb5	-0.15844233
93	0xbd9e5291	-0.07730592
94	0xbdbcec64	-0.092247754
95	0x3dff9e1a	0.12481327
96	0xbe4c8d22	-0.19975713
97	0x3cd0a66f	0.025469987
98	0x3dcfec12	0.10152449
99	0xbe00cf8a	-0.1257917
100	0x3e67e6d6	0.2264665
101	0xbe42b964	-0.19016033
102	0x3d82b123	0.063814424
103	0xbcfe7bb6	-0.03106485
104	0x3d5d69a1	0.054055814
105	0x3e083566	0.1330162
106	0xbe3aa663	-0.18227534
107	0xbd625961	-0.05526102
108	0x3dcc18d5	0.09965674
109	0x3e0985d0	0.13429952
110	0x3e029e4b	0.12755696
111	0xbe1ebcd7	-0.15501724
112	0x3cbaea53	0.022816813
113	0x3e24d479	0.16096677
114	0xbe199ec5	-0.15001972
115	0xbe0163e9	-0.12635769
116	0x3dd88e93	0.10574069
117	0xbdea0b87	-0.1142798
118	0x3d13b766	0.036063574
119	0xbe6e86dd	-0.23293634
120	0x3d9da609	0.07697684
121	0x3df08cc9	0.11745603
122	0x3dd3261a	0.10310002
123	0x3d5f3499	0.05449352
124	0xbcea2ddb	-0.028586319
125	0x3d9892f9	0.07449908
126	0x3cc7c0e9	0.024383979
127	0xbe578c88	-0.21049702
128	0xbe098997	-0.13431393
129	0x3d9ad68d	0.075604536
130	0xbd07cde9	-0.033155356
131	0x3d2825f6	0.041051827
132	0xbea1c6a1	-0.31596854
133	0xbe2d642b	-0.16932742
134	0x3e0e79cc	0.1391365
135	0x3c1d14b9	0.00958746
136	0x3c9c3f38	0.019073114
137	0xbe96f142	-0.2948094
138	0x3d4c3fae	0.049865417
139	0x3d9688d8	0.073503196
140	0x3d726f92	0.059188433
141	0x3c984061	0.018585386
142	0xbe6d986f	-0.2320268
143	0x3b20f5c1	0.0024560543
144	0x3e2cc620	0.16872454
145	0x3e42c262	0.19019464
146	0xbd3b979d	-0.045798887
147	0x3ec2620c	0.3796543
148	0xbe0a925b	-0.13532393
149	0xbe3e0511	-0.1855662
150	0xbdadd3a5	-0.084876336
151	0x3c1655cd	0.00917573
152	0xbd9ff578	-0.07810491
153	0x3e2ee52c	0.1707961
154	0x3da4c43e	0.08045243
155	0x3e385f46	0.18005094
156	0x3db3318e	0.08749686
157	0xbe63328a	-0.22187248
158	0xbe029006	-0.12750253
159	0xbb927d3b	-0.004470495
160	0xbd3d9d4d	-0.04629259
161	0x3de72ca9	0.11287815
162	0xbd0c0fad	-0.034194637
163	0x3d5b12b2	0.053484626
164	0xbd0ba14f	-0.034089383
165	0xbd693556	-0.05693563
166	0xbd6ad7db	-0.057334762
167	0xbd29f6ce	-0.041495137
168	0x3df8945f	0.121376745
169	0xbe41f4dd	-0.18941064
170	0xbd6f09e0	-0.058359027
171	0xbea3c6a6	-0.31987494
172	0x3e0b4a8c	0.13602656
173	0xbe3d221e	-0.18470046
174	0x3d84f505	0.06492046
175	0xbdd2540a	-0.102699354
176	0xbc511c6c	-0.012763124
177	0xbe08e284	-0.13367659
178	0x3d6d8c71	0.057995263
179	0xbddc04cc	-0.107431024
180	0xbd0f7706	-0.03502562
181	0xbdc95e00	-0.09832382
182	0xbc053d34	-0.008132268
183	0x3e100e87	0.14068042
184	0xbe1c7c4e	-0.15281793
185	0x3e17c384	0.14820677
186	0x3dfdf68c	0.12400541
187	0xbd020857	-0.031746235
188	0xbd24db38	-0.040248126
189	0x3d8f78a4	0.07005432
190	0xbdc7cf1a	-0.09756298
191	0xbc58a490	-0.0132228285
192	0x3e07ce52	0.13262299
193	0xbd0782ea	-0.033083834
194	0xbe316ed5	-0.17327435
195	0xbc85385f	-0.016262231
196	0xbc663291	-0.014050142
197	0x3e22d1b1	0.15900303
198	0xbe369fd0	-0.17834401
199	0xbd5cb845	-0.05388667
200	0xbc8f46c8	-0.017489806
201	0x3e6bb770	0.23019195
202	0x3e0cd957	0.13754784
203	0xbb6fb2d1	-0.0036575089
204	0xbad19084	-0.0015988504
205	0xbe4784a4	-0.19484192
206	0x3ce00c1a	0.02734952
207	0x3e1297e8	0.1431576
208	0x3dbf2606	0.09333424
209	0x3e8283c4	0.25491154
210	0xbb7b274f	-0.003832299
211	0x3e0f75c7	0.14009772
212	0xbd65326f	-0.0559563
213	0xbdff3ca9	-0.12462742
214	0xbe0c4ca7	-0.13701116
215	0xbbf7ede1	-0.007566199
216	0xbdf38aa4	-0.11891678
217	0xbe5e4644	-0.21706492
218	0xbe6a8622	-0.2290273
219	0xbd141869	-0.03615609
220	0x3bc368bb	0.0059634126
221	0xbc97cb1b	-0.018529465
222	0x3e868a24	0.26277268
223	0x3e0e95b8	0.139243
224	0x3dec18ea	0.115281895
225	0x3e479ee1	0.19494201
226	0xbdefb9fd	-0.11705396
227	0x3919d6d8	0.00014671253
228	0x3e39899a	0.18118897
229	0xbd38229d	-0.044954885
230	0xbcc11962	-0.023571674
231	0xbbe8b782	-0.007101954
232	0x3ba022ec	0.0048869755
233	0x3e513903	0.20431904
234	0x3c719b62	0.014746519
235	0x3d97c1c7	0.07410007
236	0x3b3f2d17	0.0029171163
237	0xbded17f7	-0.115768366
238	0x3e028268	0.12745059
239	0xbe005871	-0.12533738
240	0x3e3053a5	0.17219408
241	0xbc8b359c	-0.016993336
242	0xbdf62363	-0.12018468
243	0xbd21d4c5	-0.039509553
244	0x3da6da24	0.08147076
245	0xbcafae85	-0.021445522
246	0xbc9ad554	-0.01890055
247	0x3e482244	0.19544321
248	0x3e3d432f	0.1848266
249	0xbe1cebfc	-0.15324396
250	0xbd750051	-0.059814755
251	0x3e87e88d	0.2654461
252	0x3e22693e	0.15860459
253	0x3dd041b9	0.101687856
254	0xbd88b032	-0.066742316
255	0x3e6e4de8	0.23271906

fc1.bias f4 [84]
0	0xbd94a008	-0.07257086
1	0xbe3feaa3	-0.1874185
2	0xbc9ed488	-0.019388452
3	0x3cb6e0ae	0.022323932
4	0xbd0b8634	-0.034063533
5	0xbd2974cf	-0.041371163
6	0xbcc1e6e9	-0.023669677
7	0xbc4d975a	-0.012548292
8	0xbdf62bdc	-0.12020084
9	0x3d2a81f3	0.041627835
10	0xbd9f301e	-0.077728495
11	0xbd5882ba	-0.052859046
12	0xbde63f3a	-0.11242528
13	0xbe1f7c7f	-0.15574835
14	0xbe0609e9	-0.13089718
15	0x3d793a24	0.060846463
16	0x3d1307df	0.03589618
17	0xbb04667a	-0.0020202682
18	0xbc939b17	-0.018018289
19	0xbd66cca8	-0.05634752
20	0xbd7bf825	-0.061515946
21	0xbda37563	-0.07981374
22	0x3e05487e	0.13015935
23	0xbd7b8419	-0.061405275
24	0x3e2433a4	0.16035324
25	0xbab3c7e8	-0.0013716193
26	0xbbe9acd8	-0.0071312003
27	0x3d5cabe5	0.05387487
28	0x3d112952	0.035439797
29	0xbcb6ad7d	-0.022299523
30	0x3d926421	0.07148004
31	0xbd7bbb4f	-0.06145793
32	0xbc010da9	-0.007876792
33	0x3dd7fd92	0.105464116
34	0xbdb5794a	-0.08861025
35	0xba2daf69	-0.00066255644
36	0x3d89b9a5	0.06724862
37	0x3df43aa4	0.11925247
38	0xbda401a3	-0.08008125
39	0x3dc29ef2	0.09502973
40	0x3ada6fc0	0.0016665384
41	0xbe21bfcf	-0.15795825
42	0x3d7de603	0.061986934
43	0x3ddd24cd	0.10798035
44	0xbe2009e8	-0.15628779
45	0x3c3666b9	0.011132889
46	0x3d52eefc	0.051497445
47	0x3de7a802	0.11311342
48	0xbe42213d	-0.18957992
49	0x3d69e79f	0.057105657
50	0x3dc6e364	0.0971134
51	0xbdc938ec	-0.0982531
52	0x3d446338	0.047946185
53	0xbc8d1339	-0.01722108
54	0x3c2619af	0.010137959
55	0xbc6a7d1a	-0.014312053
56	0x3d904932	0.07045211
57	0x3c0ca5b2	0.008584427
58	0x3e1e4d8e	0.15459272
59	0xbd4dda09	-0.050256763
60	0xbd4e1f9d	-0.050323118
61	0xbd891d51	-0.06695045
62	0x3d8c8773	0.068617724
63	0xbdbac7dc	-0.091201514
64	0x3d0b9241	0.034075025
65	0xbc218912	-0.00985934
66	0x3dcc6d28	0.099817574
67	0x38f35a1c	0.00011603927
68	0x3da1818b	0.078860365
69	0xbdf35c6c	-0.118828624
70	0x3c09b0e5	0.008403991
71	0x3d7cee87	0.061750915
72	0xbd0da30b	-0.034579318
73	0xbe4feb43	-0.20304589
74	0x3cb4bedd	0.022063667
75	0x3d3d2141	0.04617429
76	0x39a87a83	0.00032134735
77	0xbd4227a1	-0.047401074
78	0xbe0beb29	-0.13663925
79	0x3d571e53	0.052519154
80	0x3d82b1a0	0.063815355
81	0x3da84669	0.08216555
82	0xbd5fdfa4	-0.05465664
83	0xbd138b70	-0.03602165

fc2.weight f4 [10, 84]
0	0xbe2fef92	-0.17181233
1	0x3d432528	0.047642857
2	0x3e9e12d5	0.30873743
3	0x3dfd38bb	0.12364336
4	0xbd947b3f	-0.0725007
5	0xbecf32d8	-0.40468478
6	0x3e647ce1	0.22313263
7	0x3e050758	0.12991083
8	0xbc6d19b6	-0.014471462
9	0x3e165046	0.1467906
10	0x3e2e95ae	0.17049286
11	0xbdb37993	-0.08763423
12	0xbe4f5283	-0.2024632
13	0x3e9f6960	0.31135082
14	0xbcea689e	-0.028614338
15	0x3e8863a4	0.2663852
16	0xbeac6449	-0.33670262
17	0x3ec580ae	0.38574737
18	0x3e705613	0.23470335
19	0x3ebfd894	0.37469923
20	0xbea16685	-0.3152353
21	0x3e8c88a0	0.27447987
22	0xbe4fb601	-0.20284273
23	0xbe0a30bc	-0.13495153
24	0x3e80fdcf	0.2519364
25	0xbe23e947	-0.16006957
26	0x3e852394	0.26003706
27	0x3da012b9	0.07816071
28	0x3e84bf9f	0.25927445
29	0x3c707cba	0.014678175
30	0x3e546e3f	0.2074518
31	0xbe906f6e	-0.28210014
32	0xbb3e7aeb	-0.0029064964
33	0xbdd50f20	-0.104032755
34	0xbc9f9c9c	-0.019483857
35	0xbe9a0b4d	-0.30086747
36	0x3d9ee63b	0.07758757
37	0x3e59fbaf	0.21287416
38	0xbe96f18a	-0.29481155
39	0xbee1fd0f	-0.4413838
40	0x3e4e165c	0.20125717
41	0x3ec31121	0.38099006
42	0xbeece8e4	-0.4627143
43	0x3ef5074c	0.4785713
44	0x3db8bb36	0.09020083
45	0xbf0b5d5c	-0.5443933
46	0xbbf172e5	-0.007368433
47	0x3ed9dd2d	0.42551556
48	0xbd89c81f	-0.06727623
49	0x3e96ed17	0.2947776
50	0xbe90f7fc	-0.28314197
51	0xbce95f2c	-0.028487764
52	0x3e3bf424	0.18354851
53	0x3f1500f7	0.582046
54	0xbec5f1a8	-0.38660932
55	0x3ed2b5c2	0.41154295
56	0xbebcdd34	-0.36887515
57	0xbc80a237	-0.01570235
58	0xbe9b7a53	-0.30366763
59	0x3de47c16	0.1115648
60	0x3ec796f4	0.38982356
61	0x3c88f8e8	0.01672025
62	0xbdfec165	-0.12439231
63	0xbd9e0613	-0.07716002
64	0x3d85a6a8	0.06525928
65	0xbe28a7d5	-0.16470273
66	0x3cd1330a	0.025537033
67	0x3eb71fd7	0.3576648
68	0xbdf14a48	-0.11781746
69	0x3d959088	0.07302958
70	0xbd9e141c	-0.07718679
71	0xbd615029	-0.055008087
72	0x3ead3cec	0.33835542
73	0xbee7931d	-0.45229426
74	0x3d761b3f	0.060084578
75	0x3e2b3a87	0.16721545
76	0xbe1d2030	-0.1534431
77	0x3f04eb05	0.5192111
78	0x3e9f32fb	0.31093583
79	0x3e60d45c	0.21956009
80	0x3e85a9fb	0.26106247
81	0xbe2cd6d8	-0.16878831
82	0x3e9a0809	0.30084255
83	0xbdfee047	-0.12445121
84	0x3e6365d6	0.22206816
85	0xbdc82cf1	-0.09774197
86	0xbdb462ed	-0.08807931
87	0xbd1b078b	-0.03784899
88	0x3e51801a	0.20459023
89	0x3d884592	0.066538945
90	0xbe6d92d0	-0.23200536
91	0xbe11411f	-0.14184998
92	0xbec75ffa	-0.38940412
93	0xbeb12c74	-0.34604228
94	0xbe5da5ba	-0.21645251
95	0x3e8cbae1	0.27486327
96	0xbe9fedcd	-0.31236115
97	0xbe30ef6a	-0.17278829
98	0xbed1bebb	-0.40965828
99	0xbe6d546f	-0.2317674
100	0x3da26f12	0.07931341
101	0xbe021851	-0.12704588
102	0xbe2feee1	-0.17180969
103	0xbe1b527a	-0.15168181
104	0xbea67245	-0.32509056
105	0xbea75d50	-0.3268838
106	0x3e83cd84	0.25742733
107	0xbe96c519	-0.2944725
108	0xbe54e669	-0.2079102
109	0x3ebaeba2	0.365079
110	0xbe97e588	-0.29667306
111	0xbe895a02	-0.26826483
112	0xbea7db4c	-0.32784498
113	0x3e079ecd	0.13244171
114	0x3e4a7ad6	0.1977342
115	0xbea61744	-0.32439625
116	0xbe849a48	-0.25898957
117	0xbe7e29bf	-0.24820612
118	0x3ef9693b	0.48713097
119	0xbe97b5fb	-0.29631028
120	0xbe1aed1c	-0.15129513
121	0x3e9b0d15	0.30283418
122	0xbe6b8f90	-0.23003983
123	0x3d30ff0b	0.043211978
124	0xbede9202	-0.4347077
125	0xbe84c35d	-0.259303
126	0x3e106bc6	0.14103612
127	0x3d8b9cbf	0.06817006
128	0xbe841090	-0.25793886
129	0x3d34ab6b	0.04410879
130	0x3ed9faa3	0.42574033
131	0x3ed2ec4d	0.41195908
132	0x3e2b69ef	0.16739629
133	0x3e97e578	0.29667258
134	0x3eb7fd59	0.35935476
135	0xbe83ae00	-0.2571869
136	0xbdb31b24	-0.08745411
137	0x3dde0204	0.10840228
138	0x3e271d86	0.16319856
139	0xbddf2267	-0.108952336
140	0x3e68effc	0.22747797
141	0xbe907b2d	-0.28218976
142	0x3e378f22	0.17925695
143	0x3e9669cd	0.29377595
144	0xbdeb1330	-0.11478269
145	0xbed350e9	-0.41272667
146	0x3e930bca	0.28719932
147	0x3ea215cc	0.31657255
148	0xbd1075da	-0.035268642
149	0x3e4bd968	0.19907153
150	0x3dc5c7eb	0.09657272
151	0xbd5a43f3	-0.053287458
152	0x3e39586a	0.18100134
153	0x3dcb7cce	0.09935914
154	0x3eaef71f	0.34172913
155	0x3ecac4db	0.39603314
156	0xbe368a89	-0.17826284
157	0xbefc9e53	-0.49339542
158	0xbe0627d7	-0.13101135
159	0x3e30e7e5	0.1727596
160	0xbe85f96f	-0.26166865
161	0xbe9bebbf	-0.30453297
162	0x3e5f36b2	0.21798208
163	0x3d0ac49c	0.033878908
164	0xbea1246c	-0.314731
165	0xbcf8eee1	-0.030387344
166	0xbe4e5c33	-0.20152359
167	0xbea985da	-0.33109933
168	0x3e5f4cce	0.21806642
169	0x3d7d95de	0.061910503
170	0xbd50d240	-0.05098176
171	0x3e795f00	0.24352646
172	0x3e91e1ae	0.28492492
173	0xbe4cc39c	-0.19996494
174	0x3d9785a2	0.07398535
175	0xbe3dad60	-0.18523169
176	0x3e969fee	0.29418892
177	0x3ec546f8	0.38530707
178	0xbd7e553b	-0.062093
179	0x3e945619	0.28971937
180	0xbe6da444	-0.23207194
181	0x3e32b7ce	0.17452928
182	0xbdbe0aa1	-0.09279371
183	0xbdcd2e71	-0.100186236
184	0x3dc7c408	0.09754187
185	0xbcc10494	-0.023561753
186	0x3e32ad96	0.1744903
187	0xbee0decd	-0.43919984
188	0x3e0f8b0a	0.14017883
189	0x3de9ff17	0.11425608
190	0x3e9a66c4	0.3015653
191	0xbe667255	-0.22504552
192	0x3eb0fc10	0.34567308
193	0xbdcb0238	-0.099125326
194	0xbe296bb5	-0.16544993
195	0xbebf3e3d	-0.37352172
196	0x3e8fa22a	0.2805341
197	0xbde1ec94	-0.11031452
198	0xbce0dace	-0.027448084
199	0xbe196553	-0.14980058
200	0xbeab26e2	-0.33428103
201	0x3edf3ca9	0.43600968
202	0xbd1fbae3	-0.03899659
203	0xbe46f5d3	-0.19429712
204	0xbe8498b8	-0.25897765
205	0xbcb913e0	-0.022592485
206	0xbda0fab5	-0.078603186
207	0x3ea1a7a2	0.31573206
208	0x3d930430	0.07178533
209	0xbef77efd	-0.48339072
210	0xbe3b12f9	-0.18268956
211	0x3ef46ebf	0.47740743
212	0x3ea9e19c	0.3317994
213	0xbeff0d63	-0.498149
214	0x3e20e30d	0.15711613
215	0x3ea14014	0.314942
216	0x3c0354da	0.008015836
217	0xbe9d1ac7	-0.30684492
218	0xbce23615	-0.027613679
219	0x3e1e5add	0.15464349
220	0xbe72b5cd	-0.23702164
221	0xbea11781	-0.31463245
222	0x3e8f2775	0.2795979
223	0xbdc66daf	-0.09688889
224	0xbea08d01	-0.31357577
225	0x3ebf261b	0.3733376
226	0x3efa0c94	0.4883772
227	0xbee3e15b	-0.4450787
228	0x3ee984ab	0.4560903
229	0xbeba904c	-0.36438215
230	0xbea52ca4	-0.3226062
231	0xbea3add7	-0.31968567
232	0x3ec3be60	0.38231182
233	0x3d92d94a	0.07170351
234	0xbe48ed8b	-0.19621865
235	0x3e6fa234	0.2340172
236	0xbe9ea6ae	-0.30986542
237	0x3ce62d13	0.028097665
238	0x3d531946	0.051537775
239	0x3ec6f7b0	0.38860846
240	0xbec0e405	-0.37673965
241	0xbeab3ae2	-0.33443362
242	0x3e909b20	0.2824335
243	0x3e4468fb	0.19180672
244	0x3f0240a5	0.5087989
245	0x3ededd87	0.43528387
246	0xbf0c729c	-0.5486238
247	0xbed64568	-0.41849828
248	0xb9a5cd9e	-0.0003162445
249	0xbd9e1e77	-0.077206545
250	0xbea9acdd	-0.33139697
251	0x3e958d93	0.29209575
252	0xbe7eb8e9	-0.24875225
253	0xbdf1b085	-0.118012466
254	0x3e924ba9	0.2857335
255	0x3e846ce0	0.25864315

fc2.bias f4 [10]
0	0xbe29f76c	-0.1659829
1	0x3cb1ffe6	0.021728467
2	0x3e2bf61e	0.16793105
3	0x3d8988cb	0.06715544
4	0x3d8e13b9	0.069373555
5	0x3d1bc5ab	0.038030308
6	0x3c28709f	0.010280757
7	0xbc371596	-0.01117458
8	0xbdd8d177	-0.10586827
9	0x3d5da2ab	0.05411021
